<?xml version="1.0" ?>
<net name="person-detection-0100" version="10">
	<layers>
		<layer id="0" name="image" type="Parameter" version="opset1">
			<data element_type="f16" shape="1,3,256,256"/>
			<output>
				<port id="0" precision="FP16">
					<dim>1</dim>
					<dim>3</dim>
					<dim>256</dim>
					<dim>256</dim>
				</port>
			</output>
		</layer>
		<layer id="1" name="23182322_const" type="Const" version="opset1">
			<data element_type="f16" offset="0" shape="" size="2"/>
			<output>
				<port id="1" precision="FP16"/>
			</output>
		</layer>
		<layer id="2" name="23192323_const" type="Const" version="opset1">
			<data element_type="f16" offset="2" shape="" size="2"/>
			<output>
				<port id="1" precision="FP16"/>
			</output>
		</layer>
		<layer id="3" name="23202324_const" type="Const" version="opset1">
			<data element_type="f16" offset="0" shape="" size="2"/>
			<output>
				<port id="1" precision="FP16"/>
			</output>
		</layer>
		<layer id="4" name="23212325_const" type="Const" version="opset1">
			<data element_type="f16" offset="2" shape="" size="2"/>
			<output>
				<port id="1" precision="FP16"/>
			</output>
		</layer>
		<layer id="5" name="Mul_/fq_input_0" type="FakeQuantize" version="opset1">
			<data levels="256"/>
			<input>
				<port id="0">
					<dim>1</dim>
					<dim>3</dim>
					<dim>256</dim>
					<dim>256</dim>
				</port>
				<port id="1"/>
				<port id="2"/>
				<port id="3"/>
				<port id="4"/>
			</input>
			<output>
				<port id="5" precision="FP16">
					<dim>1</dim>
					<dim>3</dim>
					<dim>256</dim>
					<dim>256</dim>
				</port>
			</output>
		</layer>
		<layer id="6" name="Mul_/fq_input_1/Convert_to_float/Cast_05804_const" type="Const" version="opset1">
			<data element_type="u8" offset="4" shape="1,1,1,1" size="1"/>
			<output>
				<port id="1" precision="U8">
					<dim>1</dim>
					<dim>1</dim>
					<dim>1</dim>
					<dim>1</dim>
				</port>
			</output>
		</layer>
		<layer id="7" name="Mul_/fq_input_1/Convert_to_float" type="Convert" version="opset1">
			<data destination_type="f16"/>
			<input>
				<port id="0">
					<dim>1</dim>
					<dim>1</dim>
					<dim>1</dim>
					<dim>1</dim>
				</port>
			</input>
			<output>
				<port id="1" precision="FP16">
					<dim>1</dim>
					<dim>1</dim>
					<dim>1</dim>
					<dim>1</dim>
				</port>
			</output>
		</layer>
		<layer id="8" name="Mul_/fq_input_1/Copy/out_low4669_const" type="Const" version="opset1">
			<data element_type="f16" offset="0" shape="1" size="2"/>
			<output>
				<port id="1" precision="FP16">
					<dim>1</dim>
				</port>
			</output>
		</layer>
		<layer id="9" name="Mul_/fq_input_1/Copy/out_high4670_const" type="Const" version="opset1">
			<data element_type="f16" offset="5" shape="1" size="2"/>
			<output>
				<port id="1" precision="FP16">
					<dim>1</dim>
				</port>
			</output>
		</layer>
		<layer id="10" name="23302334_const" type="Const" version="opset1">
			<data element_type="f16" offset="7" shape="1,1,1,1" size="2"/>
			<output>
				<port id="1" precision="FP16">
					<dim>1</dim>
					<dim>1</dim>
					<dim>1</dim>
					<dim>1</dim>
				</port>
			</output>
		</layer>
		<layer id="11" name="23312335_const" type="Const" version="opset1">
			<data element_type="f16" offset="9" shape="1,1,1,1" size="2"/>
			<output>
				<port id="1" precision="FP16">
					<dim>1</dim>
					<dim>1</dim>
					<dim>1</dim>
					<dim>1</dim>
				</port>
			</output>
		</layer>
		<layer id="12" name="Mul_/fq_input_1" type="FakeQuantize" version="opset1">
			<data levels="255"/>
			<input>
				<port id="0">
					<dim>1</dim>
					<dim>1</dim>
					<dim>1</dim>
					<dim>1</dim>
				</port>
				<port id="1">
					<dim>1</dim>
				</port>
				<port id="2">
					<dim>1</dim>
				</port>
				<port id="3">
					<dim>1</dim>
					<dim>1</dim>
					<dim>1</dim>
					<dim>1</dim>
				</port>
				<port id="4">
					<dim>1</dim>
					<dim>1</dim>
					<dim>1</dim>
					<dim>1</dim>
				</port>
			</input>
			<output>
				<port id="5" precision="FP16">
					<dim>1</dim>
					<dim>1</dim>
					<dim>1</dim>
					<dim>1</dim>
				</port>
			</output>
		</layer>
		<layer id="13" name="Mul_" type="Multiply" version="opset1">
			<input>
				<port id="0">
					<dim>1</dim>
					<dim>3</dim>
					<dim>256</dim>
					<dim>256</dim>
				</port>
				<port id="1">
					<dim>1</dim>
					<dim>1</dim>
					<dim>1</dim>
					<dim>1</dim>
				</port>
			</input>
			<output>
				<port id="2" precision="FP16">
					<dim>1</dim>
					<dim>3</dim>
					<dim>256</dim>
					<dim>256</dim>
				</port>
			</output>
		</layer>
		<layer id="14" name="11981202_const" type="Const" version="opset1">
			<data element_type="f16" offset="0" shape="" size="2"/>
			<output>
				<port id="1" precision="FP16"/>
			</output>
		</layer>
		<layer id="15" name="11991203_const" type="Const" version="opset1">
			<data element_type="f16" offset="11" shape="" size="2"/>
			<output>
				<port id="1" precision="FP16"/>
			</output>
		</layer>
		<layer id="16" name="12001204_const" type="Const" version="opset1">
			<data element_type="f16" offset="0" shape="" size="2"/>
			<output>
				<port id="1" precision="FP16"/>
			</output>
		</layer>
		<layer id="17" name="12011205_const" type="Const" version="opset1">
			<data element_type="f16" offset="11" shape="" size="2"/>
			<output>
				<port id="1" precision="FP16"/>
			</output>
		</layer>
		<layer id="18" name="357/fq_input_0" type="FakeQuantize" version="opset1">
			<data levels="256"/>
			<input>
				<port id="0">
					<dim>1</dim>
					<dim>3</dim>
					<dim>256</dim>
					<dim>256</dim>
				</port>
				<port id="1"/>
				<port id="2"/>
				<port id="3"/>
				<port id="4"/>
			</input>
			<output>
				<port id="5" precision="FP16">
					<dim>1</dim>
					<dim>3</dim>
					<dim>256</dim>
					<dim>256</dim>
				</port>
			</output>
		</layer>
		<layer id="19" name="357/fq_weights_1/Convert_to_float/Cast_05894_const" type="Const" version="opset1">
			<data element_type="u8" offset="13" shape="32,3,3,3" size="864"/>
			<output>
				<port id="1" precision="U8">
					<dim>32</dim>
					<dim>3</dim>
					<dim>3</dim>
					<dim>3</dim>
				</port>
			</output>
		</layer>
		<layer id="20" name="357/fq_weights_1/Convert_to_float" type="Convert" version="opset1">
			<data destination_type="f16"/>
			<input>
				<port id="0">
					<dim>32</dim>
					<dim>3</dim>
					<dim>3</dim>
					<dim>3</dim>
				</port>
			</input>
			<output>
				<port id="1" precision="FP16">
					<dim>32</dim>
					<dim>3</dim>
					<dim>3</dim>
					<dim>3</dim>
				</port>
			</output>
		</layer>
		<layer id="21" name="357/fq_weights_1/Copy/out_low4829_const" type="Const" version="opset1">
			<data element_type="f16" offset="0" shape="1" size="2"/>
			<output>
				<port id="1" precision="FP16">
					<dim>1</dim>
				</port>
			</output>
		</layer>
		<layer id="22" name="357/fq_weights_1/Copy/out_high4830_const" type="Const" version="opset1">
			<data element_type="f16" offset="5" shape="1" size="2"/>
			<output>
				<port id="1" precision="FP16">
					<dim>1</dim>
				</port>
			</output>
		</layer>
		<layer id="23" name="12101214_const" type="Const" version="opset1">
			<data element_type="f16" offset="877" shape="32,1,1,1" size="64"/>
			<output>
				<port id="1" precision="FP16">
					<dim>32</dim>
					<dim>1</dim>
					<dim>1</dim>
					<dim>1</dim>
				</port>
			</output>
		</layer>
		<layer id="24" name="12111215_const" type="Const" version="opset1">
			<data element_type="f16" offset="941" shape="32,1,1,1" size="64"/>
			<output>
				<port id="1" precision="FP16">
					<dim>32</dim>
					<dim>1</dim>
					<dim>1</dim>
					<dim>1</dim>
				</port>
			</output>
		</layer>
		<layer id="25" name="357/fq_weights_1" type="FakeQuantize" version="opset1">
			<data levels="255"/>
			<input>
				<port id="0">
					<dim>32</dim>
					<dim>3</dim>
					<dim>3</dim>
					<dim>3</dim>
				</port>
				<port id="1">
					<dim>1</dim>
				</port>
				<port id="2">
					<dim>1</dim>
				</port>
				<port id="3">
					<dim>32</dim>
					<dim>1</dim>
					<dim>1</dim>
					<dim>1</dim>
				</port>
				<port id="4">
					<dim>32</dim>
					<dim>1</dim>
					<dim>1</dim>
					<dim>1</dim>
				</port>
			</input>
			<output>
				<port id="5" precision="FP16">
					<dim>32</dim>
					<dim>3</dim>
					<dim>3</dim>
					<dim>3</dim>
				</port>
			</output>
		</layer>
		<layer id="26" name="357" type="Convolution" version="opset1">
			<data dilations="1,1" output_padding="0,0" pads_begin="1,1" pads_end="1,1" strides="2,2"/>
			<input>
				<port id="0">
					<dim>1</dim>
					<dim>3</dim>
					<dim>256</dim>
					<dim>256</dim>
				</port>
				<port id="1">
					<dim>32</dim>
					<dim>3</dim>
					<dim>3</dim>
					<dim>3</dim>
				</port>
			</input>
			<output>
				<port id="2" precision="FP16">
					<dim>1</dim>
					<dim>32</dim>
					<dim>128</dim>
					<dim>128</dim>
				</port>
			</output>
		</layer>
		<layer id="27" name="data_add_11843/copy_const354_const" type="Const" version="opset1">
			<data element_type="f16" offset="1005" shape="1,32,1,1" size="64"/>
			<output>
				<port id="1" precision="FP16">
					<dim>1</dim>
					<dim>32</dim>
					<dim>1</dim>
					<dim>1</dim>
				</port>
			</output>
		</layer>
		<layer id="28" name="358/variance/Fused_Add_" type="Add" version="opset1">
			<input>
				<port id="0">
					<dim>1</dim>
					<dim>32</dim>
					<dim>128</dim>
					<dim>128</dim>
				</port>
				<port id="1">
					<dim>1</dim>
					<dim>32</dim>
					<dim>1</dim>
					<dim>1</dim>
				</port>
			</input>
			<output>
				<port id="2" precision="FP16">
					<dim>1</dim>
					<dim>32</dim>
					<dim>128</dim>
					<dim>128</dim>
				</port>
			</output>
		</layer>
		<layer id="29" name="359" type="Clamp" version="opset1">
			<data max="6.0" min="0.0"/>
			<input>
				<port id="0">
					<dim>1</dim>
					<dim>32</dim>
					<dim>128</dim>
					<dim>128</dim>
				</port>
			</input>
			<output>
				<port id="1" precision="FP16">
					<dim>1</dim>
					<dim>32</dim>
					<dim>128</dim>
					<dim>128</dim>
				</port>
			</output>
		</layer>
		<layer id="30" name="16781682_const" type="Const" version="opset1">
			<data element_type="f16" offset="0" shape="" size="2"/>
			<output>
				<port id="1" precision="FP16"/>
			</output>
		</layer>
		<layer id="31" name="16791683_const" type="Const" version="opset1">
			<data element_type="f16" offset="1069" shape="" size="2"/>
			<output>
				<port id="1" precision="FP16"/>
			</output>
		</layer>
		<layer id="32" name="16801684_const" type="Const" version="opset1">
			<data element_type="f16" offset="0" shape="" size="2"/>
			<output>
				<port id="1" precision="FP16"/>
			</output>
		</layer>
		<layer id="33" name="16811685_const" type="Const" version="opset1">
			<data element_type="f16" offset="1069" shape="" size="2"/>
			<output>
				<port id="1" precision="FP16"/>
			</output>
		</layer>
		<layer id="34" name="360/fq_input_0" type="FakeQuantize" version="opset1">
			<data levels="256"/>
			<input>
				<port id="0">
					<dim>1</dim>
					<dim>32</dim>
					<dim>128</dim>
					<dim>128</dim>
				</port>
				<port id="1"/>
				<port id="2"/>
				<port id="3"/>
				<port id="4"/>
			</input>
			<output>
				<port id="5" precision="FP16">
					<dim>1</dim>
					<dim>32</dim>
					<dim>128</dim>
					<dim>128</dim>
				</port>
			</output>
		</layer>
		<layer id="35" name="360/fq_weights_1/Convert_to_float/Cast_05886_const" type="Const" version="opset1">
			<data element_type="u8" offset="1071" shape="32,32,1,1" size="1024"/>
			<output>
				<port id="1" precision="U8">
					<dim>32</dim>
					<dim>32</dim>
					<dim>1</dim>
					<dim>1</dim>
				</port>
			</output>
		</layer>
		<layer id="36" name="360/fq_weights_1/Convert_to_float" type="Convert" version="opset1">
			<data destination_type="f16"/>
			<input>
				<port id="0">
					<dim>32</dim>
					<dim>32</dim>
					<dim>1</dim>
					<dim>1</dim>
				</port>
			</input>
			<output>
				<port id="1" precision="FP16">
					<dim>32</dim>
					<dim>32</dim>
					<dim>1</dim>
					<dim>1</dim>
				</port>
			</output>
		</layer>
		<layer id="37" name="360/fq_weights_1/Copy/out_low4717_const" type="Const" version="opset1">
			<data element_type="f16" offset="0" shape="1" size="2"/>
			<output>
				<port id="1" precision="FP16">
					<dim>1</dim>
				</port>
			</output>
		</layer>
		<layer id="38" name="360/fq_weights_1/Copy/out_high4718_const" type="Const" version="opset1">
			<data element_type="f16" offset="5" shape="1" size="2"/>
			<output>
				<port id="1" precision="FP16">
					<dim>1</dim>
				</port>
			</output>
		</layer>
		<layer id="39" name="16901694_const" type="Const" version="opset1">
			<data element_type="f16" offset="2095" shape="32,1,1,1" size="64"/>
			<output>
				<port id="1" precision="FP16">
					<dim>32</dim>
					<dim>1</dim>
					<dim>1</dim>
					<dim>1</dim>
				</port>
			</output>
		</layer>
		<layer id="40" name="16911695_const" type="Const" version="opset1">
			<data element_type="f16" offset="2159" shape="32,1,1,1" size="64"/>
			<output>
				<port id="1" precision="FP16">
					<dim>32</dim>
					<dim>1</dim>
					<dim>1</dim>
					<dim>1</dim>
				</port>
			</output>
		</layer>
		<layer id="41" name="360/fq_weights_1" type="FakeQuantize" version="opset1">
			<data levels="255"/>
			<input>
				<port id="0">
					<dim>32</dim>
					<dim>32</dim>
					<dim>1</dim>
					<dim>1</dim>
				</port>
				<port id="1">
					<dim>1</dim>
				</port>
				<port id="2">
					<dim>1</dim>
				</port>
				<port id="3">
					<dim>32</dim>
					<dim>1</dim>
					<dim>1</dim>
					<dim>1</dim>
				</port>
				<port id="4">
					<dim>32</dim>
					<dim>1</dim>
					<dim>1</dim>
					<dim>1</dim>
				</port>
			</input>
			<output>
				<port id="5" precision="FP16">
					<dim>32</dim>
					<dim>32</dim>
					<dim>1</dim>
					<dim>1</dim>
				</port>
			</output>
		</layer>
		<layer id="42" name="360" type="Convolution" version="opset1">
			<data dilations="1,1" output_padding="0,0" pads_begin="0,0" pads_end="0,0" strides="1,1"/>
			<input>
				<port id="0">
					<dim>1</dim>
					<dim>32</dim>
					<dim>128</dim>
					<dim>128</dim>
				</port>
				<port id="1">
					<dim>32</dim>
					<dim>32</dim>
					<dim>1</dim>
					<dim>1</dim>
				</port>
			</input>
			<output>
				<port id="2" precision="FP16">
					<dim>1</dim>
					<dim>32</dim>
					<dim>128</dim>
					<dim>128</dim>
				</port>
			</output>
		</layer>
		<layer id="43" name="data_add_1184611851/copy_const359_const" type="Const" version="opset1">
			<data element_type="f16" offset="2223" shape="1,32,1,1" size="64"/>
			<output>
				<port id="1" precision="FP16">
					<dim>1</dim>
					<dim>32</dim>
					<dim>1</dim>
					<dim>1</dim>
				</port>
			</output>
		</layer>
		<layer id="44" name="361/variance/Fused_Add_" type="Add" version="opset1">
			<input>
				<port id="0">
					<dim>1</dim>
					<dim>32</dim>
					<dim>128</dim>
					<dim>128</dim>
				</port>
				<port id="1">
					<dim>1</dim>
					<dim>32</dim>
					<dim>1</dim>
					<dim>1</dim>
				</port>
			</input>
			<output>
				<port id="2" precision="FP16">
					<dim>1</dim>
					<dim>32</dim>
					<dim>128</dim>
					<dim>128</dim>
				</port>
			</output>
		</layer>
		<layer id="45" name="362" type="Clamp" version="opset1">
			<data max="6.0" min="0.0"/>
			<input>
				<port id="0">
					<dim>1</dim>
					<dim>32</dim>
					<dim>128</dim>
					<dim>128</dim>
				</port>
			</input>
			<output>
				<port id="1" precision="FP16">
					<dim>1</dim>
					<dim>32</dim>
					<dim>128</dim>
					<dim>128</dim>
				</port>
			</output>
		</layer>
		<layer id="46" name="20782082_const" type="Const" version="opset1">
			<data element_type="f16" offset="2287" shape="1,32,1,1" size="64"/>
			<output>
				<port id="1" precision="FP16">
					<dim>1</dim>
					<dim>32</dim>
					<dim>1</dim>
					<dim>1</dim>
				</port>
			</output>
		</layer>
		<layer id="47" name="20792083_const" type="Const" version="opset1">
			<data element_type="f16" offset="2351" shape="1,32,1,1" size="64"/>
			<output>
				<port id="1" precision="FP16">
					<dim>1</dim>
					<dim>32</dim>
					<dim>1</dim>
					<dim>1</dim>
				</port>
			</output>
		</layer>
		<layer id="48" name="20802084_const" type="Const" version="opset1">
			<data element_type="f16" offset="2287" shape="1,32,1,1" size="64"/>
			<output>
				<port id="1" precision="FP16">
					<dim>1</dim>
					<dim>32</dim>
					<dim>1</dim>
					<dim>1</dim>
				</port>
			</output>
		</layer>
		<layer id="49" name="20812085_const" type="Const" version="opset1">
			<data element_type="f16" offset="2351" shape="1,32,1,1" size="64"/>
			<output>
				<port id="1" precision="FP16">
					<dim>1</dim>
					<dim>32</dim>
					<dim>1</dim>
					<dim>1</dim>
				</port>
			</output>
		</layer>
		<layer id="50" name="363/fq_input_0" type="FakeQuantize" version="opset1">
			<data levels="256"/>
			<input>
				<port id="0">
					<dim>1</dim>
					<dim>32</dim>
					<dim>128</dim>
					<dim>128</dim>
				</port>
				<port id="1">
					<dim>1</dim>
					<dim>32</dim>
					<dim>1</dim>
					<dim>1</dim>
				</port>
				<port id="2">
					<dim>1</dim>
					<dim>32</dim>
					<dim>1</dim>
					<dim>1</dim>
				</port>
				<port id="3">
					<dim>1</dim>
					<dim>32</dim>
					<dim>1</dim>
					<dim>1</dim>
				</port>
				<port id="4">
					<dim>1</dim>
					<dim>32</dim>
					<dim>1</dim>
					<dim>1</dim>
				</port>
			</input>
			<output>
				<port id="5" precision="FP16">
					<dim>1</dim>
					<dim>32</dim>
					<dim>128</dim>
					<dim>128</dim>
				</port>
			</output>
		</layer>
		<layer id="51" name="363/fq_weights_1/Convert_to_float/Cast_05940_const" type="Const" version="opset1">
			<data element_type="u8" offset="2415" shape="32,1,3,3" size="288"/>
			<output>
				<port id="1" precision="U8">
					<dim>32</dim>
					<dim>1</dim>
					<dim>3</dim>
					<dim>3</dim>
				</port>
			</output>
		</layer>
		<layer id="52" name="363/fq_weights_1/Convert_to_float" type="Convert" version="opset1">
			<data destination_type="f16"/>
			<input>
				<port id="0">
					<dim>32</dim>
					<dim>1</dim>
					<dim>3</dim>
					<dim>3</dim>
				</port>
			</input>
			<output>
				<port id="1" precision="FP16">
					<dim>32</dim>
					<dim>1</dim>
					<dim>3</dim>
					<dim>3</dim>
				</port>
			</output>
		</layer>
		<layer id="53" name="363/fq_weights_1/Copy/out_low4837_const" type="Const" version="opset1">
			<data element_type="f16" offset="0" shape="1" size="2"/>
			<output>
				<port id="1" precision="FP16">
					<dim>1</dim>
				</port>
			</output>
		</layer>
		<layer id="54" name="363/fq_weights_1/Copy/out_high4838_const" type="Const" version="opset1">
			<data element_type="f16" offset="5" shape="1" size="2"/>
			<output>
				<port id="1" precision="FP16">
					<dim>1</dim>
				</port>
			</output>
		</layer>
		<layer id="55" name="20902094_const" type="Const" version="opset1">
			<data element_type="f16" offset="2703" shape="32,1,1,1" size="64"/>
			<output>
				<port id="1" precision="FP16">
					<dim>32</dim>
					<dim>1</dim>
					<dim>1</dim>
					<dim>1</dim>
				</port>
			</output>
		</layer>
		<layer id="56" name="20912095_const" type="Const" version="opset1">
			<data element_type="f16" offset="2767" shape="32,1,1,1" size="64"/>
			<output>
				<port id="1" precision="FP16">
					<dim>32</dim>
					<dim>1</dim>
					<dim>1</dim>
					<dim>1</dim>
				</port>
			</output>
		</layer>
		<layer id="57" name="363/fq_weights_1" type="FakeQuantize" version="opset1">
			<data levels="255"/>
			<input>
				<port id="0">
					<dim>32</dim>
					<dim>1</dim>
					<dim>3</dim>
					<dim>3</dim>
				</port>
				<port id="1">
					<dim>1</dim>
				</port>
				<port id="2">
					<dim>1</dim>
				</port>
				<port id="3">
					<dim>32</dim>
					<dim>1</dim>
					<dim>1</dim>
					<dim>1</dim>
				</port>
				<port id="4">
					<dim>32</dim>
					<dim>1</dim>
					<dim>1</dim>
					<dim>1</dim>
				</port>
			</input>
			<output>
				<port id="5" precision="FP16">
					<dim>32</dim>
					<dim>1</dim>
					<dim>3</dim>
					<dim>3</dim>
				</port>
			</output>
		</layer>
		<layer id="58" name="6626/value6628_const" type="Const" version="opset1">
			<data element_type="i64" offset="2831" shape="5" size="40"/>
			<output>
				<port id="1" precision="I64">
					<dim>5</dim>
				</port>
			</output>
		</layer>
		<layer id="59" name="6626" type="Reshape" version="opset1">
			<data special_zero="True"/>
			<input>
				<port id="0">
					<dim>32</dim>
					<dim>1</dim>
					<dim>3</dim>
					<dim>3</dim>
				</port>
				<port id="1">
					<dim>5</dim>
				</port>
			</input>
			<output>
				<port id="2" precision="FP16">
					<dim>32</dim>
					<dim>1</dim>
					<dim>1</dim>
					<dim>3</dim>
					<dim>3</dim>
				</port>
			</output>
		</layer>
		<layer id="60" name="363" type="GroupConvolution" version="opset1">
			<data dilations="1,1" output_padding="0,0" pads_begin="1,1" pads_end="1,1" strides="1,1"/>
			<input>
				<port id="0">
					<dim>1</dim>
					<dim>32</dim>
					<dim>128</dim>
					<dim>128</dim>
				</port>
				<port id="1">
					<dim>32</dim>
					<dim>1</dim>
					<dim>1</dim>
					<dim>3</dim>
					<dim>3</dim>
				</port>
			</input>
			<output>
				<port id="2" precision="FP16">
					<dim>1</dim>
					<dim>32</dim>
					<dim>128</dim>
					<dim>128</dim>
				</port>
			</output>
		</layer>
		<layer id="61" name="data_add_1185411859/copy_const364_const" type="Const" version="opset1">
			<data element_type="f16" offset="2871" shape="1,32,1,1" size="64"/>
			<output>
				<port id="1" precision="FP16">
					<dim>1</dim>
					<dim>32</dim>
					<dim>1</dim>
					<dim>1</dim>
				</port>
			</output>
		</layer>
		<layer id="62" name="364/variance/Fused_Add_" type="Add" version="opset1">
			<input>
				<port id="0">
					<dim>1</dim>
					<dim>32</dim>
					<dim>128</dim>
					<dim>128</dim>
				</port>
				<port id="1">
					<dim>1</dim>
					<dim>32</dim>
					<dim>1</dim>
					<dim>1</dim>
				</port>
			</input>
			<output>
				<port id="2" precision="FP16">
					<dim>1</dim>
					<dim>32</dim>
					<dim>128</dim>
					<dim>128</dim>
				</port>
			</output>
		</layer>
		<layer id="63" name="365" type="Clamp" version="opset1">
			<data max="6.0" min="0.0"/>
			<input>
				<port id="0">
					<dim>1</dim>
					<dim>32</dim>
					<dim>128</dim>
					<dim>128</dim>
				</port>
			</input>
			<output>
				<port id="1" precision="FP16">
					<dim>1</dim>
					<dim>32</dim>
					<dim>128</dim>
					<dim>128</dim>
				</port>
			</output>
		</layer>
		<layer id="64" name="15781582_const" type="Const" version="opset1">
			<data element_type="f16" offset="0" shape="" size="2"/>
			<output>
				<port id="1" precision="FP16"/>
			</output>
		</layer>
		<layer id="65" name="15791583_const" type="Const" version="opset1">
			<data element_type="f16" offset="2935" shape="" size="2"/>
			<output>
				<port id="1" precision="FP16"/>
			</output>
		</layer>
		<layer id="66" name="15801584_const" type="Const" version="opset1">
			<data element_type="f16" offset="0" shape="" size="2"/>
			<output>
				<port id="1" precision="FP16"/>
			</output>
		</layer>
		<layer id="67" name="15811585_const" type="Const" version="opset1">
			<data element_type="f16" offset="2935" shape="" size="2"/>
			<output>
				<port id="1" precision="FP16"/>
			</output>
		</layer>
		<layer id="68" name="366/fq_input_0" type="FakeQuantize" version="opset1">
			<data levels="256"/>
			<input>
				<port id="0">
					<dim>1</dim>
					<dim>32</dim>
					<dim>128</dim>
					<dim>128</dim>
				</port>
				<port id="1"/>
				<port id="2"/>
				<port id="3"/>
				<port id="4"/>
			</input>
			<output>
				<port id="5" precision="FP16">
					<dim>1</dim>
					<dim>32</dim>
					<dim>128</dim>
					<dim>128</dim>
				</port>
			</output>
		</layer>
		<layer id="69" name="366/fq_weights_1/Convert_to_float/Cast_05904_const" type="Const" version="opset1">
			<data element_type="u8" offset="2937" shape="16,32,1,1" size="512"/>
			<output>
				<port id="1" precision="U8">
					<dim>16</dim>
					<dim>32</dim>
					<dim>1</dim>
					<dim>1</dim>
				</port>
			</output>
		</layer>
		<layer id="70" name="366/fq_weights_1/Convert_to_float" type="Convert" version="opset1">
			<data destination_type="f16"/>
			<input>
				<port id="0">
					<dim>16</dim>
					<dim>32</dim>
					<dim>1</dim>
					<dim>1</dim>
				</port>
			</input>
			<output>
				<port id="1" precision="FP16">
					<dim>16</dim>
					<dim>32</dim>
					<dim>1</dim>
					<dim>1</dim>
				</port>
			</output>
		</layer>
		<layer id="71" name="366/fq_weights_1/Copy/out_low4661_const" type="Const" version="opset1">
			<data element_type="f16" offset="0" shape="1" size="2"/>
			<output>
				<port id="1" precision="FP16">
					<dim>1</dim>
				</port>
			</output>
		</layer>
		<layer id="72" name="366/fq_weights_1/Copy/out_high4662_const" type="Const" version="opset1">
			<data element_type="f16" offset="5" shape="1" size="2"/>
			<output>
				<port id="1" precision="FP16">
					<dim>1</dim>
				</port>
			</output>
		</layer>
		<layer id="73" name="15901594_const" type="Const" version="opset1">
			<data element_type="f16" offset="3449" shape="16,1,1,1" size="32"/>
			<output>
				<port id="1" precision="FP16">
					<dim>16</dim>
					<dim>1</dim>
					<dim>1</dim>
					<dim>1</dim>
				</port>
			</output>
		</layer>
		<layer id="74" name="15911595_const" type="Const" version="opset1">
			<data element_type="f16" offset="3481" shape="16,1,1,1" size="32"/>
			<output>
				<port id="1" precision="FP16">
					<dim>16</dim>
					<dim>1</dim>
					<dim>1</dim>
					<dim>1</dim>
				</port>
			</output>
		</layer>
		<layer id="75" name="366/fq_weights_1" type="FakeQuantize" version="opset1">
			<data levels="255"/>
			<input>
				<port id="0">
					<dim>16</dim>
					<dim>32</dim>
					<dim>1</dim>
					<dim>1</dim>
				</port>
				<port id="1">
					<dim>1</dim>
				</port>
				<port id="2">
					<dim>1</dim>
				</port>
				<port id="3">
					<dim>16</dim>
					<dim>1</dim>
					<dim>1</dim>
					<dim>1</dim>
				</port>
				<port id="4">
					<dim>16</dim>
					<dim>1</dim>
					<dim>1</dim>
					<dim>1</dim>
				</port>
			</input>
			<output>
				<port id="5" precision="FP16">
					<dim>16</dim>
					<dim>32</dim>
					<dim>1</dim>
					<dim>1</dim>
				</port>
			</output>
		</layer>
		<layer id="76" name="366" type="Convolution" version="opset1">
			<data dilations="1,1" output_padding="0,0" pads_begin="0,0" pads_end="0,0" strides="1,1"/>
			<input>
				<port id="0">
					<dim>1</dim>
					<dim>32</dim>
					<dim>128</dim>
					<dim>128</dim>
				</port>
				<port id="1">
					<dim>16</dim>
					<dim>32</dim>
					<dim>1</dim>
					<dim>1</dim>
				</port>
			</input>
			<output>
				<port id="2" precision="FP16">
					<dim>1</dim>
					<dim>16</dim>
					<dim>128</dim>
					<dim>128</dim>
				</port>
			</output>
		</layer>
		<layer id="77" name="data_add_1186211867/copy_const369_const" type="Const" version="opset1">
			<data element_type="f16" offset="3513" shape="1,16,1,1" size="32"/>
			<output>
				<port id="1" precision="FP16">
					<dim>1</dim>
					<dim>16</dim>
					<dim>1</dim>
					<dim>1</dim>
				</port>
			</output>
		</layer>
		<layer id="78" name="367/variance/Fused_Add_" type="Add" version="opset1">
			<input>
				<port id="0">
					<dim>1</dim>
					<dim>16</dim>
					<dim>128</dim>
					<dim>128</dim>
				</port>
				<port id="1">
					<dim>1</dim>
					<dim>16</dim>
					<dim>1</dim>
					<dim>1</dim>
				</port>
			</input>
			<output>
				<port id="2" precision="FP16">
					<dim>1</dim>
					<dim>16</dim>
					<dim>128</dim>
					<dim>128</dim>
				</port>
			</output>
		</layer>
		<layer id="79" name="25382542_const" type="Const" version="opset1">
			<data element_type="f16" offset="3545" shape="" size="2"/>
			<output>
				<port id="1" precision="FP16"/>
			</output>
		</layer>
		<layer id="80" name="25392543_const" type="Const" version="opset1">
			<data element_type="f16" offset="1069" shape="" size="2"/>
			<output>
				<port id="1" precision="FP16"/>
			</output>
		</layer>
		<layer id="81" name="25402544_const" type="Const" version="opset1">
			<data element_type="f16" offset="3545" shape="" size="2"/>
			<output>
				<port id="1" precision="FP16"/>
			</output>
		</layer>
		<layer id="82" name="25412545_const" type="Const" version="opset1">
			<data element_type="f16" offset="1069" shape="" size="2"/>
			<output>
				<port id="1" precision="FP16"/>
			</output>
		</layer>
		<layer id="83" name="368/fq_input_0" type="FakeQuantize" version="opset1">
			<data levels="256"/>
			<input>
				<port id="0">
					<dim>1</dim>
					<dim>16</dim>
					<dim>128</dim>
					<dim>128</dim>
				</port>
				<port id="1"/>
				<port id="2"/>
				<port id="3"/>
				<port id="4"/>
			</input>
			<output>
				<port id="5" precision="FP16">
					<dim>1</dim>
					<dim>16</dim>
					<dim>128</dim>
					<dim>128</dim>
				</port>
			</output>
		</layer>
		<layer id="84" name="368/fq_weights_1/Convert_to_float/Cast_05870_const" type="Const" version="opset1">
			<data element_type="u8" offset="3547" shape="96,16,1,1" size="1536"/>
			<output>
				<port id="1" precision="U8">
					<dim>96</dim>
					<dim>16</dim>
					<dim>1</dim>
					<dim>1</dim>
				</port>
			</output>
		</layer>
		<layer id="85" name="368/fq_weights_1/Convert_to_float" type="Convert" version="opset1">
			<data destination_type="f16"/>
			<input>
				<port id="0">
					<dim>96</dim>
					<dim>16</dim>
					<dim>1</dim>
					<dim>1</dim>
				</port>
			</input>
			<output>
				<port id="1" precision="FP16">
					<dim>96</dim>
					<dim>16</dim>
					<dim>1</dim>
					<dim>1</dim>
				</port>
			</output>
		</layer>
		<layer id="86" name="368/fq_weights_1/Copy/out_low5101_const" type="Const" version="opset1">
			<data element_type="f16" offset="0" shape="1" size="2"/>
			<output>
				<port id="1" precision="FP16">
					<dim>1</dim>
				</port>
			</output>
		</layer>
		<layer id="87" name="368/fq_weights_1/Copy/out_high5102_const" type="Const" version="opset1">
			<data element_type="f16" offset="5" shape="1" size="2"/>
			<output>
				<port id="1" precision="FP16">
					<dim>1</dim>
				</port>
			</output>
		</layer>
		<layer id="88" name="25502554_const" type="Const" version="opset1">
			<data element_type="f16" offset="5083" shape="96,1,1,1" size="192"/>
			<output>
				<port id="1" precision="FP16">
					<dim>96</dim>
					<dim>1</dim>
					<dim>1</dim>
					<dim>1</dim>
				</port>
			</output>
		</layer>
		<layer id="89" name="25512555_const" type="Const" version="opset1">
			<data element_type="f16" offset="5275" shape="96,1,1,1" size="192"/>
			<output>
				<port id="1" precision="FP16">
					<dim>96</dim>
					<dim>1</dim>
					<dim>1</dim>
					<dim>1</dim>
				</port>
			</output>
		</layer>
		<layer id="90" name="368/fq_weights_1" type="FakeQuantize" version="opset1">
			<data levels="255"/>
			<input>
				<port id="0">
					<dim>96</dim>
					<dim>16</dim>
					<dim>1</dim>
					<dim>1</dim>
				</port>
				<port id="1">
					<dim>1</dim>
				</port>
				<port id="2">
					<dim>1</dim>
				</port>
				<port id="3">
					<dim>96</dim>
					<dim>1</dim>
					<dim>1</dim>
					<dim>1</dim>
				</port>
				<port id="4">
					<dim>96</dim>
					<dim>1</dim>
					<dim>1</dim>
					<dim>1</dim>
				</port>
			</input>
			<output>
				<port id="5" precision="FP16">
					<dim>96</dim>
					<dim>16</dim>
					<dim>1</dim>
					<dim>1</dim>
				</port>
			</output>
		</layer>
		<layer id="91" name="368" type="Convolution" version="opset1">
			<data dilations="1,1" output_padding="0,0" pads_begin="0,0" pads_end="0,0" strides="1,1"/>
			<input>
				<port id="0">
					<dim>1</dim>
					<dim>16</dim>
					<dim>128</dim>
					<dim>128</dim>
				</port>
				<port id="1">
					<dim>96</dim>
					<dim>16</dim>
					<dim>1</dim>
					<dim>1</dim>
				</port>
			</input>
			<output>
				<port id="2" precision="FP16">
					<dim>1</dim>
					<dim>96</dim>
					<dim>128</dim>
					<dim>128</dim>
				</port>
			</output>
		</layer>
		<layer id="92" name="data_add_1187011875/copy_const373_const" type="Const" version="opset1">
			<data element_type="f16" offset="5467" shape="1,96,1,1" size="192"/>
			<output>
				<port id="1" precision="FP16">
					<dim>1</dim>
					<dim>96</dim>
					<dim>1</dim>
					<dim>1</dim>
				</port>
			</output>
		</layer>
		<layer id="93" name="369/variance/Fused_Add_" type="Add" version="opset1">
			<input>
				<port id="0">
					<dim>1</dim>
					<dim>96</dim>
					<dim>128</dim>
					<dim>128</dim>
				</port>
				<port id="1">
					<dim>1</dim>
					<dim>96</dim>
					<dim>1</dim>
					<dim>1</dim>
				</port>
			</input>
			<output>
				<port id="2" precision="FP16">
					<dim>1</dim>
					<dim>96</dim>
					<dim>128</dim>
					<dim>128</dim>
				</port>
			</output>
		</layer>
		<layer id="94" name="370" type="Clamp" version="opset1">
			<data max="6.0" min="0.0"/>
			<input>
				<port id="0">
					<dim>1</dim>
					<dim>96</dim>
					<dim>128</dim>
					<dim>128</dim>
				</port>
			</input>
			<output>
				<port id="1" precision="FP16">
					<dim>1</dim>
					<dim>96</dim>
					<dim>128</dim>
					<dim>128</dim>
				</port>
			</output>
		</layer>
		<layer id="95" name="15181522_const" type="Const" version="opset1">
			<data element_type="f16" offset="5659" shape="1,96,1,1" size="192"/>
			<output>
				<port id="1" precision="FP16">
					<dim>1</dim>
					<dim>96</dim>
					<dim>1</dim>
					<dim>1</dim>
				</port>
			</output>
		</layer>
		<layer id="96" name="15191523_const" type="Const" version="opset1">
			<data element_type="f16" offset="5851" shape="1,96,1,1" size="192"/>
			<output>
				<port id="1" precision="FP16">
					<dim>1</dim>
					<dim>96</dim>
					<dim>1</dim>
					<dim>1</dim>
				</port>
			</output>
		</layer>
		<layer id="97" name="15201524_const" type="Const" version="opset1">
			<data element_type="f16" offset="5659" shape="1,96,1,1" size="192"/>
			<output>
				<port id="1" precision="FP16">
					<dim>1</dim>
					<dim>96</dim>
					<dim>1</dim>
					<dim>1</dim>
				</port>
			</output>
		</layer>
		<layer id="98" name="15211525_const" type="Const" version="opset1">
			<data element_type="f16" offset="5851" shape="1,96,1,1" size="192"/>
			<output>
				<port id="1" precision="FP16">
					<dim>1</dim>
					<dim>96</dim>
					<dim>1</dim>
					<dim>1</dim>
				</port>
			</output>
		</layer>
		<layer id="99" name="371/fq_input_0" type="FakeQuantize" version="opset1">
			<data levels="256"/>
			<input>
				<port id="0">
					<dim>1</dim>
					<dim>96</dim>
					<dim>128</dim>
					<dim>128</dim>
				</port>
				<port id="1">
					<dim>1</dim>
					<dim>96</dim>
					<dim>1</dim>
					<dim>1</dim>
				</port>
				<port id="2">
					<dim>1</dim>
					<dim>96</dim>
					<dim>1</dim>
					<dim>1</dim>
				</port>
				<port id="3">
					<dim>1</dim>
					<dim>96</dim>
					<dim>1</dim>
					<dim>1</dim>
				</port>
				<port id="4">
					<dim>1</dim>
					<dim>96</dim>
					<dim>1</dim>
					<dim>1</dim>
				</port>
			</input>
			<output>
				<port id="5" precision="FP16">
					<dim>1</dim>
					<dim>96</dim>
					<dim>128</dim>
					<dim>128</dim>
				</port>
			</output>
		</layer>
		<layer id="100" name="371/fq_weights_1/Convert_to_float/Cast_05924_const" type="Const" version="opset1">
			<data element_type="u8" offset="6043" shape="96,1,3,3" size="864"/>
			<output>
				<port id="1" precision="U8">
					<dim>96</dim>
					<dim>1</dim>
					<dim>3</dim>
					<dim>3</dim>
				</port>
			</output>
		</layer>
		<layer id="101" name="371/fq_weights_1/Convert_to_float" type="Convert" version="opset1">
			<data destination_type="f16"/>
			<input>
				<port id="0">
					<dim>96</dim>
					<dim>1</dim>
					<dim>3</dim>
					<dim>3</dim>
				</port>
			</input>
			<output>
				<port id="1" precision="FP16">
					<dim>96</dim>
					<dim>1</dim>
					<dim>3</dim>
					<dim>3</dim>
				</port>
			</output>
		</layer>
		<layer id="102" name="371/fq_weights_1/Copy/out_low5109_const" type="Const" version="opset1">
			<data element_type="f16" offset="0" shape="1" size="2"/>
			<output>
				<port id="1" precision="FP16">
					<dim>1</dim>
				</port>
			</output>
		</layer>
		<layer id="103" name="371/fq_weights_1/Copy/out_high5110_const" type="Const" version="opset1">
			<data element_type="f16" offset="5" shape="1" size="2"/>
			<output>
				<port id="1" precision="FP16">
					<dim>1</dim>
				</port>
			</output>
		</layer>
		<layer id="104" name="15301534_const" type="Const" version="opset1">
			<data element_type="f16" offset="6907" shape="96,1,1,1" size="192"/>
			<output>
				<port id="1" precision="FP16">
					<dim>96</dim>
					<dim>1</dim>
					<dim>1</dim>
					<dim>1</dim>
				</port>
			</output>
		</layer>
		<layer id="105" name="15311535_const" type="Const" version="opset1">
			<data element_type="f16" offset="7099" shape="96,1,1,1" size="192"/>
			<output>
				<port id="1" precision="FP16">
					<dim>96</dim>
					<dim>1</dim>
					<dim>1</dim>
					<dim>1</dim>
				</port>
			</output>
		</layer>
		<layer id="106" name="371/fq_weights_1" type="FakeQuantize" version="opset1">
			<data levels="255"/>
			<input>
				<port id="0">
					<dim>96</dim>
					<dim>1</dim>
					<dim>3</dim>
					<dim>3</dim>
				</port>
				<port id="1">
					<dim>1</dim>
				</port>
				<port id="2">
					<dim>1</dim>
				</port>
				<port id="3">
					<dim>96</dim>
					<dim>1</dim>
					<dim>1</dim>
					<dim>1</dim>
				</port>
				<port id="4">
					<dim>96</dim>
					<dim>1</dim>
					<dim>1</dim>
					<dim>1</dim>
				</port>
			</input>
			<output>
				<port id="5" precision="FP16">
					<dim>96</dim>
					<dim>1</dim>
					<dim>3</dim>
					<dim>3</dim>
				</port>
			</output>
		</layer>
		<layer id="107" name="6690/value6692_const" type="Const" version="opset1">
			<data element_type="i64" offset="7291" shape="5" size="40"/>
			<output>
				<port id="1" precision="I64">
					<dim>5</dim>
				</port>
			</output>
		</layer>
		<layer id="108" name="6690" type="Reshape" version="opset1">
			<data special_zero="True"/>
			<input>
				<port id="0">
					<dim>96</dim>
					<dim>1</dim>
					<dim>3</dim>
					<dim>3</dim>
				</port>
				<port id="1">
					<dim>5</dim>
				</port>
			</input>
			<output>
				<port id="2" precision="FP16">
					<dim>96</dim>
					<dim>1</dim>
					<dim>1</dim>
					<dim>3</dim>
					<dim>3</dim>
				</port>
			</output>
		</layer>
		<layer id="109" name="371" type="GroupConvolution" version="opset1">
			<data dilations="1,1" output_padding="0,0" pads_begin="1,1" pads_end="1,1" strides="2,2"/>
			<input>
				<port id="0">
					<dim>1</dim>
					<dim>96</dim>
					<dim>128</dim>
					<dim>128</dim>
				</port>
				<port id="1">
					<dim>96</dim>
					<dim>1</dim>
					<dim>1</dim>
					<dim>3</dim>
					<dim>3</dim>
				</port>
			</input>
			<output>
				<port id="2" precision="FP16">
					<dim>1</dim>
					<dim>96</dim>
					<dim>64</dim>
					<dim>64</dim>
				</port>
			</output>
		</layer>
		<layer id="110" name="data_add_1187811883/copy_const378_const" type="Const" version="opset1">
			<data element_type="f16" offset="7331" shape="1,96,1,1" size="192"/>
			<output>
				<port id="1" precision="FP16">
					<dim>1</dim>
					<dim>96</dim>
					<dim>1</dim>
					<dim>1</dim>
				</port>
			</output>
		</layer>
		<layer id="111" name="372/variance/Fused_Add_" type="Add" version="opset1">
			<input>
				<port id="0">
					<dim>1</dim>
					<dim>96</dim>
					<dim>64</dim>
					<dim>64</dim>
				</port>
				<port id="1">
					<dim>1</dim>
					<dim>96</dim>
					<dim>1</dim>
					<dim>1</dim>
				</port>
			</input>
			<output>
				<port id="2" precision="FP16">
					<dim>1</dim>
					<dim>96</dim>
					<dim>64</dim>
					<dim>64</dim>
				</port>
			</output>
		</layer>
		<layer id="112" name="373" type="Clamp" version="opset1">
			<data max="6.0" min="0.0"/>
			<input>
				<port id="0">
					<dim>1</dim>
					<dim>96</dim>
					<dim>64</dim>
					<dim>64</dim>
				</port>
			</input>
			<output>
				<port id="1" precision="FP16">
					<dim>1</dim>
					<dim>96</dim>
					<dim>64</dim>
					<dim>64</dim>
				</port>
			</output>
		</layer>
		<layer id="113" name="13181322_const" type="Const" version="opset1">
			<data element_type="f16" offset="0" shape="" size="2"/>
			<output>
				<port id="1" precision="FP16"/>
			</output>
		</layer>
		<layer id="114" name="13191323_const" type="Const" version="opset1">
			<data element_type="f16" offset="7523" shape="" size="2"/>
			<output>
				<port id="1" precision="FP16"/>
			</output>
		</layer>
		<layer id="115" name="13201324_const" type="Const" version="opset1">
			<data element_type="f16" offset="0" shape="" size="2"/>
			<output>
				<port id="1" precision="FP16"/>
			</output>
		</layer>
		<layer id="116" name="13211325_const" type="Const" version="opset1">
			<data element_type="f16" offset="7523" shape="" size="2"/>
			<output>
				<port id="1" precision="FP16"/>
			</output>
		</layer>
		<layer id="117" name="374/fq_input_0" type="FakeQuantize" version="opset1">
			<data levels="256"/>
			<input>
				<port id="0">
					<dim>1</dim>
					<dim>96</dim>
					<dim>64</dim>
					<dim>64</dim>
				</port>
				<port id="1"/>
				<port id="2"/>
				<port id="3"/>
				<port id="4"/>
			</input>
			<output>
				<port id="5" precision="FP16">
					<dim>1</dim>
					<dim>96</dim>
					<dim>64</dim>
					<dim>64</dim>
				</port>
			</output>
		</layer>
		<layer id="118" name="374/fq_weights_1/Convert_to_float/Cast_05868_const" type="Const" version="opset1">
			<data element_type="u8" offset="7525" shape="24,96,1,1" size="2304"/>
			<output>
				<port id="1" precision="U8">
					<dim>24</dim>
					<dim>96</dim>
					<dim>1</dim>
					<dim>1</dim>
				</port>
			</output>
		</layer>
		<layer id="119" name="374/fq_weights_1/Convert_to_float" type="Convert" version="opset1">
			<data destination_type="f16"/>
			<input>
				<port id="0">
					<dim>24</dim>
					<dim>96</dim>
					<dim>1</dim>
					<dim>1</dim>
				</port>
			</input>
			<output>
				<port id="1" precision="FP16">
					<dim>24</dim>
					<dim>96</dim>
					<dim>1</dim>
					<dim>1</dim>
				</port>
			</output>
		</layer>
		<layer id="120" name="374/fq_weights_1/Copy/out_low5061_const" type="Const" version="opset1">
			<data element_type="f16" offset="0" shape="1" size="2"/>
			<output>
				<port id="1" precision="FP16">
					<dim>1</dim>
				</port>
			</output>
		</layer>
		<layer id="121" name="374/fq_weights_1/Copy/out_high5062_const" type="Const" version="opset1">
			<data element_type="f16" offset="5" shape="1" size="2"/>
			<output>
				<port id="1" precision="FP16">
					<dim>1</dim>
				</port>
			</output>
		</layer>
		<layer id="122" name="13301334_const" type="Const" version="opset1">
			<data element_type="f16" offset="9829" shape="24,1,1,1" size="48"/>
			<output>
				<port id="1" precision="FP16">
					<dim>24</dim>
					<dim>1</dim>
					<dim>1</dim>
					<dim>1</dim>
				</port>
			</output>
		</layer>
		<layer id="123" name="13311335_const" type="Const" version="opset1">
			<data element_type="f16" offset="9877" shape="24,1,1,1" size="48"/>
			<output>
				<port id="1" precision="FP16">
					<dim>24</dim>
					<dim>1</dim>
					<dim>1</dim>
					<dim>1</dim>
				</port>
			</output>
		</layer>
		<layer id="124" name="374/fq_weights_1" type="FakeQuantize" version="opset1">
			<data levels="255"/>
			<input>
				<port id="0">
					<dim>24</dim>
					<dim>96</dim>
					<dim>1</dim>
					<dim>1</dim>
				</port>
				<port id="1">
					<dim>1</dim>
				</port>
				<port id="2">
					<dim>1</dim>
				</port>
				<port id="3">
					<dim>24</dim>
					<dim>1</dim>
					<dim>1</dim>
					<dim>1</dim>
				</port>
				<port id="4">
					<dim>24</dim>
					<dim>1</dim>
					<dim>1</dim>
					<dim>1</dim>
				</port>
			</input>
			<output>
				<port id="5" precision="FP16">
					<dim>24</dim>
					<dim>96</dim>
					<dim>1</dim>
					<dim>1</dim>
				</port>
			</output>
		</layer>
		<layer id="125" name="374" type="Convolution" version="opset1">
			<data dilations="1,1" output_padding="0,0" pads_begin="0,0" pads_end="0,0" strides="1,1"/>
			<input>
				<port id="0">
					<dim>1</dim>
					<dim>96</dim>
					<dim>64</dim>
					<dim>64</dim>
				</port>
				<port id="1">
					<dim>24</dim>
					<dim>96</dim>
					<dim>1</dim>
					<dim>1</dim>
				</port>
			</input>
			<output>
				<port id="2" precision="FP16">
					<dim>1</dim>
					<dim>24</dim>
					<dim>64</dim>
					<dim>64</dim>
				</port>
			</output>
		</layer>
		<layer id="126" name="data_add_1188611891/copy_const383_const" type="Const" version="opset1">
			<data element_type="f16" offset="9925" shape="1,24,1,1" size="48"/>
			<output>
				<port id="1" precision="FP16">
					<dim>1</dim>
					<dim>24</dim>
					<dim>1</dim>
					<dim>1</dim>
				</port>
			</output>
		</layer>
		<layer id="127" name="375/variance/Fused_Add_" type="Add" version="opset1">
			<input>
				<port id="0">
					<dim>1</dim>
					<dim>24</dim>
					<dim>64</dim>
					<dim>64</dim>
				</port>
				<port id="1">
					<dim>1</dim>
					<dim>24</dim>
					<dim>1</dim>
					<dim>1</dim>
				</port>
			</input>
			<output>
				<port id="2" precision="FP16">
					<dim>1</dim>
					<dim>24</dim>
					<dim>64</dim>
					<dim>64</dim>
				</port>
			</output>
		</layer>
		<layer id="128" name="21982202_const" type="Const" version="opset1">
			<data element_type="f16" offset="9973" shape="" size="2"/>
			<output>
				<port id="1" precision="FP16"/>
			</output>
		</layer>
		<layer id="129" name="21992203_const" type="Const" version="opset1">
			<data element_type="f16" offset="9975" shape="" size="2"/>
			<output>
				<port id="1" precision="FP16"/>
			</output>
		</layer>
		<layer id="130" name="22002204_const" type="Const" version="opset1">
			<data element_type="f16" offset="9973" shape="" size="2"/>
			<output>
				<port id="1" precision="FP16"/>
			</output>
		</layer>
		<layer id="131" name="22012205_const" type="Const" version="opset1">
			<data element_type="f16" offset="9975" shape="" size="2"/>
			<output>
				<port id="1" precision="FP16"/>
			</output>
		</layer>
		<layer id="132" name="376/fq_input_0" type="FakeQuantize" version="opset1">
			<data levels="256"/>
			<input>
				<port id="0">
					<dim>1</dim>
					<dim>24</dim>
					<dim>64</dim>
					<dim>64</dim>
				</port>
				<port id="1"/>
				<port id="2"/>
				<port id="3"/>
				<port id="4"/>
			</input>
			<output>
				<port id="5" precision="FP16">
					<dim>1</dim>
					<dim>24</dim>
					<dim>64</dim>
					<dim>64</dim>
				</port>
			</output>
		</layer>
		<layer id="133" name="376/fq_weights_1/Convert_to_float/Cast_05916_const" type="Const" version="opset1">
			<data element_type="u8" offset="9977" shape="144,24,1,1" size="3456"/>
			<output>
				<port id="1" precision="U8">
					<dim>144</dim>
					<dim>24</dim>
					<dim>1</dim>
					<dim>1</dim>
				</port>
			</output>
		</layer>
		<layer id="134" name="376/fq_weights_1/Convert_to_float" type="Convert" version="opset1">
			<data destination_type="f16"/>
			<input>
				<port id="0">
					<dim>144</dim>
					<dim>24</dim>
					<dim>1</dim>
					<dim>1</dim>
				</port>
			</input>
			<output>
				<port id="1" precision="FP16">
					<dim>144</dim>
					<dim>24</dim>
					<dim>1</dim>
					<dim>1</dim>
				</port>
			</output>
		</layer>
		<layer id="135" name="376/fq_weights_1/Copy/out_low5093_const" type="Const" version="opset1">
			<data element_type="f16" offset="0" shape="1" size="2"/>
			<output>
				<port id="1" precision="FP16">
					<dim>1</dim>
				</port>
			</output>
		</layer>
		<layer id="136" name="376/fq_weights_1/Copy/out_high5094_const" type="Const" version="opset1">
			<data element_type="f16" offset="5" shape="1" size="2"/>
			<output>
				<port id="1" precision="FP16">
					<dim>1</dim>
				</port>
			</output>
		</layer>
		<layer id="137" name="22102214_const" type="Const" version="opset1">
			<data element_type="f16" offset="13433" shape="144,1,1,1" size="288"/>
			<output>
				<port id="1" precision="FP16">
					<dim>144</dim>
					<dim>1</dim>
					<dim>1</dim>
					<dim>1</dim>
				</port>
			</output>
		</layer>
		<layer id="138" name="22112215_const" type="Const" version="opset1">
			<data element_type="f16" offset="13721" shape="144,1,1,1" size="288"/>
			<output>
				<port id="1" precision="FP16">
					<dim>144</dim>
					<dim>1</dim>
					<dim>1</dim>
					<dim>1</dim>
				</port>
			</output>
		</layer>
		<layer id="139" name="376/fq_weights_1" type="FakeQuantize" version="opset1">
			<data levels="255"/>
			<input>
				<port id="0">
					<dim>144</dim>
					<dim>24</dim>
					<dim>1</dim>
					<dim>1</dim>
				</port>
				<port id="1">
					<dim>1</dim>
				</port>
				<port id="2">
					<dim>1</dim>
				</port>
				<port id="3">
					<dim>144</dim>
					<dim>1</dim>
					<dim>1</dim>
					<dim>1</dim>
				</port>
				<port id="4">
					<dim>144</dim>
					<dim>1</dim>
					<dim>1</dim>
					<dim>1</dim>
				</port>
			</input>
			<output>
				<port id="5" precision="FP16">
					<dim>144</dim>
					<dim>24</dim>
					<dim>1</dim>
					<dim>1</dim>
				</port>
			</output>
		</layer>
		<layer id="140" name="376" type="Convolution" version="opset1">
			<data dilations="1,1" output_padding="0,0" pads_begin="0,0" pads_end="0,0" strides="1,1"/>
			<input>
				<port id="0">
					<dim>1</dim>
					<dim>24</dim>
					<dim>64</dim>
					<dim>64</dim>
				</port>
				<port id="1">
					<dim>144</dim>
					<dim>24</dim>
					<dim>1</dim>
					<dim>1</dim>
				</port>
			</input>
			<output>
				<port id="2" precision="FP16">
					<dim>1</dim>
					<dim>144</dim>
					<dim>64</dim>
					<dim>64</dim>
				</port>
			</output>
		</layer>
		<layer id="141" name="data_add_1189411899/copy_const387_const" type="Const" version="opset1">
			<data element_type="f16" offset="14009" shape="1,144,1,1" size="288"/>
			<output>
				<port id="1" precision="FP16">
					<dim>1</dim>
					<dim>144</dim>
					<dim>1</dim>
					<dim>1</dim>
				</port>
			</output>
		</layer>
		<layer id="142" name="377/variance/Fused_Add_" type="Add" version="opset1">
			<input>
				<port id="0">
					<dim>1</dim>
					<dim>144</dim>
					<dim>64</dim>
					<dim>64</dim>
				</port>
				<port id="1">
					<dim>1</dim>
					<dim>144</dim>
					<dim>1</dim>
					<dim>1</dim>
				</port>
			</input>
			<output>
				<port id="2" precision="FP16">
					<dim>1</dim>
					<dim>144</dim>
					<dim>64</dim>
					<dim>64</dim>
				</port>
			</output>
		</layer>
		<layer id="143" name="378" type="Clamp" version="opset1">
			<data max="6.0" min="0.0"/>
			<input>
				<port id="0">
					<dim>1</dim>
					<dim>144</dim>
					<dim>64</dim>
					<dim>64</dim>
				</port>
			</input>
			<output>
				<port id="1" precision="FP16">
					<dim>1</dim>
					<dim>144</dim>
					<dim>64</dim>
					<dim>64</dim>
				</port>
			</output>
		</layer>
		<layer id="144" name="11581162_const" type="Const" version="opset1">
			<data element_type="f16" offset="14297" shape="1,144,1,1" size="288"/>
			<output>
				<port id="1" precision="FP16">
					<dim>1</dim>
					<dim>144</dim>
					<dim>1</dim>
					<dim>1</dim>
				</port>
			</output>
		</layer>
		<layer id="145" name="11591163_const" type="Const" version="opset1">
			<data element_type="f16" offset="14585" shape="1,144,1,1" size="288"/>
			<output>
				<port id="1" precision="FP16">
					<dim>1</dim>
					<dim>144</dim>
					<dim>1</dim>
					<dim>1</dim>
				</port>
			</output>
		</layer>
		<layer id="146" name="11601164_const" type="Const" version="opset1">
			<data element_type="f16" offset="14297" shape="1,144,1,1" size="288"/>
			<output>
				<port id="1" precision="FP16">
					<dim>1</dim>
					<dim>144</dim>
					<dim>1</dim>
					<dim>1</dim>
				</port>
			</output>
		</layer>
		<layer id="147" name="11611165_const" type="Const" version="opset1">
			<data element_type="f16" offset="14585" shape="1,144,1,1" size="288"/>
			<output>
				<port id="1" precision="FP16">
					<dim>1</dim>
					<dim>144</dim>
					<dim>1</dim>
					<dim>1</dim>
				</port>
			</output>
		</layer>
		<layer id="148" name="379/fq_input_0" type="FakeQuantize" version="opset1">
			<data levels="256"/>
			<input>
				<port id="0">
					<dim>1</dim>
					<dim>144</dim>
					<dim>64</dim>
					<dim>64</dim>
				</port>
				<port id="1">
					<dim>1</dim>
					<dim>144</dim>
					<dim>1</dim>
					<dim>1</dim>
				</port>
				<port id="2">
					<dim>1</dim>
					<dim>144</dim>
					<dim>1</dim>
					<dim>1</dim>
				</port>
				<port id="3">
					<dim>1</dim>
					<dim>144</dim>
					<dim>1</dim>
					<dim>1</dim>
				</port>
				<port id="4">
					<dim>1</dim>
					<dim>144</dim>
					<dim>1</dim>
					<dim>1</dim>
				</port>
			</input>
			<output>
				<port id="5" precision="FP16">
					<dim>1</dim>
					<dim>144</dim>
					<dim>64</dim>
					<dim>64</dim>
				</port>
			</output>
		</layer>
		<layer id="149" name="379/fq_weights_1/Convert_to_float/Cast_05822_const" type="Const" version="opset1">
			<data element_type="u8" offset="14873" shape="144,1,3,3" size="1296"/>
			<output>
				<port id="1" precision="U8">
					<dim>144</dim>
					<dim>1</dim>
					<dim>3</dim>
					<dim>3</dim>
				</port>
			</output>
		</layer>
		<layer id="150" name="379/fq_weights_1/Convert_to_float" type="Convert" version="opset1">
			<data destination_type="f16"/>
			<input>
				<port id="0">
					<dim>144</dim>
					<dim>1</dim>
					<dim>3</dim>
					<dim>3</dim>
				</port>
			</input>
			<output>
				<port id="1" precision="FP16">
					<dim>144</dim>
					<dim>1</dim>
					<dim>3</dim>
					<dim>3</dim>
				</port>
			</output>
		</layer>
		<layer id="151" name="379/fq_weights_1/Copy/out_low4773_const" type="Const" version="opset1">
			<data element_type="f16" offset="0" shape="1" size="2"/>
			<output>
				<port id="1" precision="FP16">
					<dim>1</dim>
				</port>
			</output>
		</layer>
		<layer id="152" name="379/fq_weights_1/Copy/out_high4774_const" type="Const" version="opset1">
			<data element_type="f16" offset="5" shape="1" size="2"/>
			<output>
				<port id="1" precision="FP16">
					<dim>1</dim>
				</port>
			</output>
		</layer>
		<layer id="153" name="11701174_const" type="Const" version="opset1">
			<data element_type="f16" offset="16169" shape="144,1,1,1" size="288"/>
			<output>
				<port id="1" precision="FP16">
					<dim>144</dim>
					<dim>1</dim>
					<dim>1</dim>
					<dim>1</dim>
				</port>
			</output>
		</layer>
		<layer id="154" name="11711175_const" type="Const" version="opset1">
			<data element_type="f16" offset="16457" shape="144,1,1,1" size="288"/>
			<output>
				<port id="1" precision="FP16">
					<dim>144</dim>
					<dim>1</dim>
					<dim>1</dim>
					<dim>1</dim>
				</port>
			</output>
		</layer>
		<layer id="155" name="379/fq_weights_1" type="FakeQuantize" version="opset1">
			<data levels="255"/>
			<input>
				<port id="0">
					<dim>144</dim>
					<dim>1</dim>
					<dim>3</dim>
					<dim>3</dim>
				</port>
				<port id="1">
					<dim>1</dim>
				</port>
				<port id="2">
					<dim>1</dim>
				</port>
				<port id="3">
					<dim>144</dim>
					<dim>1</dim>
					<dim>1</dim>
					<dim>1</dim>
				</port>
				<port id="4">
					<dim>144</dim>
					<dim>1</dim>
					<dim>1</dim>
					<dim>1</dim>
				</port>
			</input>
			<output>
				<port id="5" precision="FP16">
					<dim>144</dim>
					<dim>1</dim>
					<dim>3</dim>
					<dim>3</dim>
				</port>
			</output>
		</layer>
		<layer id="156" name="6646/value6648_const" type="Const" version="opset1">
			<data element_type="i64" offset="16745" shape="5" size="40"/>
			<output>
				<port id="1" precision="I64">
					<dim>5</dim>
				</port>
			</output>
		</layer>
		<layer id="157" name="6646" type="Reshape" version="opset1">
			<data special_zero="True"/>
			<input>
				<port id="0">
					<dim>144</dim>
					<dim>1</dim>
					<dim>3</dim>
					<dim>3</dim>
				</port>
				<port id="1">
					<dim>5</dim>
				</port>
			</input>
			<output>
				<port id="2" precision="FP16">
					<dim>144</dim>
					<dim>1</dim>
					<dim>1</dim>
					<dim>3</dim>
					<dim>3</dim>
				</port>
			</output>
		</layer>
		<layer id="158" name="379" type="GroupConvolution" version="opset1">
			<data dilations="1,1" output_padding="0,0" pads_begin="1,1" pads_end="1,1" strides="1,1"/>
			<input>
				<port id="0">
					<dim>1</dim>
					<dim>144</dim>
					<dim>64</dim>
					<dim>64</dim>
				</port>
				<port id="1">
					<dim>144</dim>
					<dim>1</dim>
					<dim>1</dim>
					<dim>3</dim>
					<dim>3</dim>
				</port>
			</input>
			<output>
				<port id="2" precision="FP16">
					<dim>1</dim>
					<dim>144</dim>
					<dim>64</dim>
					<dim>64</dim>
				</port>
			</output>
		</layer>
		<layer id="159" name="data_add_1190211907/copy_const392_const" type="Const" version="opset1">
			<data element_type="f16" offset="16785" shape="1,144,1,1" size="288"/>
			<output>
				<port id="1" precision="FP16">
					<dim>1</dim>
					<dim>144</dim>
					<dim>1</dim>
					<dim>1</dim>
				</port>
			</output>
		</layer>
		<layer id="160" name="380/variance/Fused_Add_" type="Add" version="opset1">
			<input>
				<port id="0">
					<dim>1</dim>
					<dim>144</dim>
					<dim>64</dim>
					<dim>64</dim>
				</port>
				<port id="1">
					<dim>1</dim>
					<dim>144</dim>
					<dim>1</dim>
					<dim>1</dim>
				</port>
			</input>
			<output>
				<port id="2" precision="FP16">
					<dim>1</dim>
					<dim>144</dim>
					<dim>64</dim>
					<dim>64</dim>
				</port>
			</output>
		</layer>
		<layer id="161" name="381" type="Clamp" version="opset1">
			<data max="6.0" min="0.0"/>
			<input>
				<port id="0">
					<dim>1</dim>
					<dim>144</dim>
					<dim>64</dim>
					<dim>64</dim>
				</port>
			</input>
			<output>
				<port id="1" precision="FP16">
					<dim>1</dim>
					<dim>144</dim>
					<dim>64</dim>
					<dim>64</dim>
				</port>
			</output>
		</layer>
		<layer id="162" name="24182422_const" type="Const" version="opset1">
			<data element_type="f16" offset="0" shape="" size="2"/>
			<output>
				<port id="1" precision="FP16"/>
			</output>
		</layer>
		<layer id="163" name="24192423_const" type="Const" version="opset1">
			<data element_type="f16" offset="17073" shape="" size="2"/>
			<output>
				<port id="1" precision="FP16"/>
			</output>
		</layer>
		<layer id="164" name="24202424_const" type="Const" version="opset1">
			<data element_type="f16" offset="0" shape="" size="2"/>
			<output>
				<port id="1" precision="FP16"/>
			</output>
		</layer>
		<layer id="165" name="24212425_const" type="Const" version="opset1">
			<data element_type="f16" offset="17073" shape="" size="2"/>
			<output>
				<port id="1" precision="FP16"/>
			</output>
		</layer>
		<layer id="166" name="382/fq_input_0" type="FakeQuantize" version="opset1">
			<data levels="256"/>
			<input>
				<port id="0">
					<dim>1</dim>
					<dim>144</dim>
					<dim>64</dim>
					<dim>64</dim>
				</port>
				<port id="1"/>
				<port id="2"/>
				<port id="3"/>
				<port id="4"/>
			</input>
			<output>
				<port id="5" precision="FP16">
					<dim>1</dim>
					<dim>144</dim>
					<dim>64</dim>
					<dim>64</dim>
				</port>
			</output>
		</layer>
		<layer id="167" name="382/fq_weights_1/Convert_to_float/Cast_05892_const" type="Const" version="opset1">
			<data element_type="u8" offset="17075" shape="24,144,1,1" size="3456"/>
			<output>
				<port id="1" precision="U8">
					<dim>24</dim>
					<dim>144</dim>
					<dim>1</dim>
					<dim>1</dim>
				</port>
			</output>
		</layer>
		<layer id="168" name="382/fq_weights_1/Convert_to_float" type="Convert" version="opset1">
			<data destination_type="f16"/>
			<input>
				<port id="0">
					<dim>24</dim>
					<dim>144</dim>
					<dim>1</dim>
					<dim>1</dim>
				</port>
			</input>
			<output>
				<port id="1" precision="FP16">
					<dim>24</dim>
					<dim>144</dim>
					<dim>1</dim>
					<dim>1</dim>
				</port>
			</output>
		</layer>
		<layer id="169" name="382/fq_weights_1/Copy/out_low4765_const" type="Const" version="opset1">
			<data element_type="f16" offset="0" shape="1" size="2"/>
			<output>
				<port id="1" precision="FP16">
					<dim>1</dim>
				</port>
			</output>
		</layer>
		<layer id="170" name="382/fq_weights_1/Copy/out_high4766_const" type="Const" version="opset1">
			<data element_type="f16" offset="5" shape="1" size="2"/>
			<output>
				<port id="1" precision="FP16">
					<dim>1</dim>
				</port>
			</output>
		</layer>
		<layer id="171" name="24302434_const" type="Const" version="opset1">
			<data element_type="f16" offset="20531" shape="24,1,1,1" size="48"/>
			<output>
				<port id="1" precision="FP16">
					<dim>24</dim>
					<dim>1</dim>
					<dim>1</dim>
					<dim>1</dim>
				</port>
			</output>
		</layer>
		<layer id="172" name="24312435_const" type="Const" version="opset1">
			<data element_type="f16" offset="20579" shape="24,1,1,1" size="48"/>
			<output>
				<port id="1" precision="FP16">
					<dim>24</dim>
					<dim>1</dim>
					<dim>1</dim>
					<dim>1</dim>
				</port>
			</output>
		</layer>
		<layer id="173" name="382/fq_weights_1" type="FakeQuantize" version="opset1">
			<data levels="255"/>
			<input>
				<port id="0">
					<dim>24</dim>
					<dim>144</dim>
					<dim>1</dim>
					<dim>1</dim>
				</port>
				<port id="1">
					<dim>1</dim>
				</port>
				<port id="2">
					<dim>1</dim>
				</port>
				<port id="3">
					<dim>24</dim>
					<dim>1</dim>
					<dim>1</dim>
					<dim>1</dim>
				</port>
				<port id="4">
					<dim>24</dim>
					<dim>1</dim>
					<dim>1</dim>
					<dim>1</dim>
				</port>
			</input>
			<output>
				<port id="5" precision="FP16">
					<dim>24</dim>
					<dim>144</dim>
					<dim>1</dim>
					<dim>1</dim>
				</port>
			</output>
		</layer>
		<layer id="174" name="382" type="Convolution" version="opset1">
			<data dilations="1,1" output_padding="0,0" pads_begin="0,0" pads_end="0,0" strides="1,1"/>
			<input>
				<port id="0">
					<dim>1</dim>
					<dim>144</dim>
					<dim>64</dim>
					<dim>64</dim>
				</port>
				<port id="1">
					<dim>24</dim>
					<dim>144</dim>
					<dim>1</dim>
					<dim>1</dim>
				</port>
			</input>
			<output>
				<port id="2" precision="FP16">
					<dim>1</dim>
					<dim>24</dim>
					<dim>64</dim>
					<dim>64</dim>
				</port>
			</output>
		</layer>
		<layer id="175" name="data_add_1191011915/copy_const397_const" type="Const" version="opset1">
			<data element_type="f16" offset="20627" shape="1,24,1,1" size="48"/>
			<output>
				<port id="1" precision="FP16">
					<dim>1</dim>
					<dim>24</dim>
					<dim>1</dim>
					<dim>1</dim>
				</port>
			</output>
		</layer>
		<layer id="176" name="383/variance/Fused_Add_" type="Add" version="opset1">
			<input>
				<port id="0">
					<dim>1</dim>
					<dim>24</dim>
					<dim>64</dim>
					<dim>64</dim>
				</port>
				<port id="1">
					<dim>1</dim>
					<dim>24</dim>
					<dim>1</dim>
					<dim>1</dim>
				</port>
			</input>
			<output>
				<port id="2" precision="FP16">
					<dim>1</dim>
					<dim>24</dim>
					<dim>64</dim>
					<dim>64</dim>
				</port>
			</output>
		</layer>
		<layer id="177" name="18981902_const" type="Const" version="opset1">
			<data element_type="f16" offset="20675" shape="" size="2"/>
			<output>
				<port id="1" precision="FP16"/>
			</output>
		</layer>
		<layer id="178" name="18991903_const" type="Const" version="opset1">
			<data element_type="f16" offset="20677" shape="" size="2"/>
			<output>
				<port id="1" precision="FP16"/>
			</output>
		</layer>
		<layer id="179" name="19001904_const" type="Const" version="opset1">
			<data element_type="f16" offset="20675" shape="" size="2"/>
			<output>
				<port id="1" precision="FP16"/>
			</output>
		</layer>
		<layer id="180" name="19011905_const" type="Const" version="opset1">
			<data element_type="f16" offset="20677" shape="" size="2"/>
			<output>
				<port id="1" precision="FP16"/>
			</output>
		</layer>
		<layer id="181" name="384/fq_input_0" type="FakeQuantize" version="opset1">
			<data levels="256"/>
			<input>
				<port id="0">
					<dim>1</dim>
					<dim>24</dim>
					<dim>64</dim>
					<dim>64</dim>
				</port>
				<port id="1"/>
				<port id="2"/>
				<port id="3"/>
				<port id="4"/>
			</input>
			<output>
				<port id="5" precision="FP16">
					<dim>1</dim>
					<dim>24</dim>
					<dim>64</dim>
					<dim>64</dim>
				</port>
			</output>
		</layer>
		<layer id="182" name="384" type="Add" version="opset1">
			<input>
				<port id="0">
					<dim>1</dim>
					<dim>24</dim>
					<dim>64</dim>
					<dim>64</dim>
				</port>
				<port id="1">
					<dim>1</dim>
					<dim>24</dim>
					<dim>64</dim>
					<dim>64</dim>
				</port>
			</input>
			<output>
				<port id="2" precision="FP16">
					<dim>1</dim>
					<dim>24</dim>
					<dim>64</dim>
					<dim>64</dim>
				</port>
			</output>
		</layer>
		<layer id="183" name="17181722_const" type="Const" version="opset1">
			<data element_type="f16" offset="20679" shape="" size="2"/>
			<output>
				<port id="1" precision="FP16"/>
			</output>
		</layer>
		<layer id="184" name="17191723_const" type="Const" version="opset1">
			<data element_type="f16" offset="20681" shape="" size="2"/>
			<output>
				<port id="1" precision="FP16"/>
			</output>
		</layer>
		<layer id="185" name="17201724_const" type="Const" version="opset1">
			<data element_type="f16" offset="20679" shape="" size="2"/>
			<output>
				<port id="1" precision="FP16"/>
			</output>
		</layer>
		<layer id="186" name="17211725_const" type="Const" version="opset1">
			<data element_type="f16" offset="20681" shape="" size="2"/>
			<output>
				<port id="1" precision="FP16"/>
			</output>
		</layer>
		<layer id="187" name="385/fq_input_0" type="FakeQuantize" version="opset1">
			<data levels="256"/>
			<input>
				<port id="0">
					<dim>1</dim>
					<dim>24</dim>
					<dim>64</dim>
					<dim>64</dim>
				</port>
				<port id="1"/>
				<port id="2"/>
				<port id="3"/>
				<port id="4"/>
			</input>
			<output>
				<port id="5" precision="FP16">
					<dim>1</dim>
					<dim>24</dim>
					<dim>64</dim>
					<dim>64</dim>
				</port>
			</output>
		</layer>
		<layer id="188" name="385/fq_weights_1/Convert_to_float/Cast_05922_const" type="Const" version="opset1">
			<data element_type="u8" offset="20683" shape="144,24,1,1" size="3456"/>
			<output>
				<port id="1" precision="U8">
					<dim>144</dim>
					<dim>24</dim>
					<dim>1</dim>
					<dim>1</dim>
				</port>
			</output>
		</layer>
		<layer id="189" name="385/fq_weights_1/Convert_to_float" type="Convert" version="opset1">
			<data destination_type="f16"/>
			<input>
				<port id="0">
					<dim>144</dim>
					<dim>24</dim>
					<dim>1</dim>
					<dim>1</dim>
				</port>
			</input>
			<output>
				<port id="1" precision="FP16">
					<dim>144</dim>
					<dim>24</dim>
					<dim>1</dim>
					<dim>1</dim>
				</port>
			</output>
		</layer>
		<layer id="190" name="385/fq_weights_1/Copy/out_low4797_const" type="Const" version="opset1">
			<data element_type="f16" offset="0" shape="1" size="2"/>
			<output>
				<port id="1" precision="FP16">
					<dim>1</dim>
				</port>
			</output>
		</layer>
		<layer id="191" name="385/fq_weights_1/Copy/out_high4798_const" type="Const" version="opset1">
			<data element_type="f16" offset="5" shape="1" size="2"/>
			<output>
				<port id="1" precision="FP16">
					<dim>1</dim>
				</port>
			</output>
		</layer>
		<layer id="192" name="17301734_const" type="Const" version="opset1">
			<data element_type="f16" offset="24139" shape="144,1,1,1" size="288"/>
			<output>
				<port id="1" precision="FP16">
					<dim>144</dim>
					<dim>1</dim>
					<dim>1</dim>
					<dim>1</dim>
				</port>
			</output>
		</layer>
		<layer id="193" name="17311735_const" type="Const" version="opset1">
			<data element_type="f16" offset="24427" shape="144,1,1,1" size="288"/>
			<output>
				<port id="1" precision="FP16">
					<dim>144</dim>
					<dim>1</dim>
					<dim>1</dim>
					<dim>1</dim>
				</port>
			</output>
		</layer>
		<layer id="194" name="385/fq_weights_1" type="FakeQuantize" version="opset1">
			<data levels="255"/>
			<input>
				<port id="0">
					<dim>144</dim>
					<dim>24</dim>
					<dim>1</dim>
					<dim>1</dim>
				</port>
				<port id="1">
					<dim>1</dim>
				</port>
				<port id="2">
					<dim>1</dim>
				</port>
				<port id="3">
					<dim>144</dim>
					<dim>1</dim>
					<dim>1</dim>
					<dim>1</dim>
				</port>
				<port id="4">
					<dim>144</dim>
					<dim>1</dim>
					<dim>1</dim>
					<dim>1</dim>
				</port>
			</input>
			<output>
				<port id="5" precision="FP16">
					<dim>144</dim>
					<dim>24</dim>
					<dim>1</dim>
					<dim>1</dim>
				</port>
			</output>
		</layer>
		<layer id="195" name="385" type="Convolution" version="opset1">
			<data dilations="1,1" output_padding="0,0" pads_begin="0,0" pads_end="0,0" strides="1,1"/>
			<input>
				<port id="0">
					<dim>1</dim>
					<dim>24</dim>
					<dim>64</dim>
					<dim>64</dim>
				</port>
				<port id="1">
					<dim>144</dim>
					<dim>24</dim>
					<dim>1</dim>
					<dim>1</dim>
				</port>
			</input>
			<output>
				<port id="2" precision="FP16">
					<dim>1</dim>
					<dim>144</dim>
					<dim>64</dim>
					<dim>64</dim>
				</port>
			</output>
		</layer>
		<layer id="196" name="data_add_1191811923/copy_const402_const" type="Const" version="opset1">
			<data element_type="f16" offset="24715" shape="1,144,1,1" size="288"/>
			<output>
				<port id="1" precision="FP16">
					<dim>1</dim>
					<dim>144</dim>
					<dim>1</dim>
					<dim>1</dim>
				</port>
			</output>
		</layer>
		<layer id="197" name="386/variance/Fused_Add_" type="Add" version="opset1">
			<input>
				<port id="0">
					<dim>1</dim>
					<dim>144</dim>
					<dim>64</dim>
					<dim>64</dim>
				</port>
				<port id="1">
					<dim>1</dim>
					<dim>144</dim>
					<dim>1</dim>
					<dim>1</dim>
				</port>
			</input>
			<output>
				<port id="2" precision="FP16">
					<dim>1</dim>
					<dim>144</dim>
					<dim>64</dim>
					<dim>64</dim>
				</port>
			</output>
		</layer>
		<layer id="198" name="387" type="Clamp" version="opset1">
			<data max="6.0" min="0.0"/>
			<input>
				<port id="0">
					<dim>1</dim>
					<dim>144</dim>
					<dim>64</dim>
					<dim>64</dim>
				</port>
			</input>
			<output>
				<port id="1" precision="FP16">
					<dim>1</dim>
					<dim>144</dim>
					<dim>64</dim>
					<dim>64</dim>
				</port>
			</output>
		</layer>
		<layer id="199" name="11781182_const" type="Const" version="opset1">
			<data element_type="f16" offset="14297" shape="1,144,1,1" size="288"/>
			<output>
				<port id="1" precision="FP16">
					<dim>1</dim>
					<dim>144</dim>
					<dim>1</dim>
					<dim>1</dim>
				</port>
			</output>
		</layer>
		<layer id="200" name="11791183_const" type="Const" version="opset1">
			<data element_type="f16" offset="25003" shape="1,144,1,1" size="288"/>
			<output>
				<port id="1" precision="FP16">
					<dim>1</dim>
					<dim>144</dim>
					<dim>1</dim>
					<dim>1</dim>
				</port>
			</output>
		</layer>
		<layer id="201" name="11801184_const" type="Const" version="opset1">
			<data element_type="f16" offset="14297" shape="1,144,1,1" size="288"/>
			<output>
				<port id="1" precision="FP16">
					<dim>1</dim>
					<dim>144</dim>
					<dim>1</dim>
					<dim>1</dim>
				</port>
			</output>
		</layer>
		<layer id="202" name="11811185_const" type="Const" version="opset1">
			<data element_type="f16" offset="25003" shape="1,144,1,1" size="288"/>
			<output>
				<port id="1" precision="FP16">
					<dim>1</dim>
					<dim>144</dim>
					<dim>1</dim>
					<dim>1</dim>
				</port>
			</output>
		</layer>
		<layer id="203" name="388/fq_input_0" type="FakeQuantize" version="opset1">
			<data levels="256"/>
			<input>
				<port id="0">
					<dim>1</dim>
					<dim>144</dim>
					<dim>64</dim>
					<dim>64</dim>
				</port>
				<port id="1">
					<dim>1</dim>
					<dim>144</dim>
					<dim>1</dim>
					<dim>1</dim>
				</port>
				<port id="2">
					<dim>1</dim>
					<dim>144</dim>
					<dim>1</dim>
					<dim>1</dim>
				</port>
				<port id="3">
					<dim>1</dim>
					<dim>144</dim>
					<dim>1</dim>
					<dim>1</dim>
				</port>
				<port id="4">
					<dim>1</dim>
					<dim>144</dim>
					<dim>1</dim>
					<dim>1</dim>
				</port>
			</input>
			<output>
				<port id="5" precision="FP16">
					<dim>1</dim>
					<dim>144</dim>
					<dim>64</dim>
					<dim>64</dim>
				</port>
			</output>
		</layer>
		<layer id="204" name="388/fq_weights_1/Convert_to_float/Cast_05856_const" type="Const" version="opset1">
			<data element_type="u8" offset="25291" shape="144,1,3,3" size="1296"/>
			<output>
				<port id="1" precision="U8">
					<dim>144</dim>
					<dim>1</dim>
					<dim>3</dim>
					<dim>3</dim>
				</port>
			</output>
		</layer>
		<layer id="205" name="388/fq_weights_1/Convert_to_float" type="Convert" version="opset1">
			<data destination_type="f16"/>
			<input>
				<port id="0">
					<dim>144</dim>
					<dim>1</dim>
					<dim>3</dim>
					<dim>3</dim>
				</port>
			</input>
			<output>
				<port id="1" precision="FP16">
					<dim>144</dim>
					<dim>1</dim>
					<dim>3</dim>
					<dim>3</dim>
				</port>
			</output>
		</layer>
		<layer id="206" name="388/fq_weights_1/Copy/out_low5125_const" type="Const" version="opset1">
			<data element_type="f16" offset="0" shape="1" size="2"/>
			<output>
				<port id="1" precision="FP16">
					<dim>1</dim>
				</port>
			</output>
		</layer>
		<layer id="207" name="388/fq_weights_1/Copy/out_high5126_const" type="Const" version="opset1">
			<data element_type="f16" offset="5" shape="1" size="2"/>
			<output>
				<port id="1" precision="FP16">
					<dim>1</dim>
				</port>
			</output>
		</layer>
		<layer id="208" name="11901194_const" type="Const" version="opset1">
			<data element_type="f16" offset="26587" shape="144,1,1,1" size="288"/>
			<output>
				<port id="1" precision="FP16">
					<dim>144</dim>
					<dim>1</dim>
					<dim>1</dim>
					<dim>1</dim>
				</port>
			</output>
		</layer>
		<layer id="209" name="11911195_const" type="Const" version="opset1">
			<data element_type="f16" offset="26875" shape="144,1,1,1" size="288"/>
			<output>
				<port id="1" precision="FP16">
					<dim>144</dim>
					<dim>1</dim>
					<dim>1</dim>
					<dim>1</dim>
				</port>
			</output>
		</layer>
		<layer id="210" name="388/fq_weights_1" type="FakeQuantize" version="opset1">
			<data levels="255"/>
			<input>
				<port id="0">
					<dim>144</dim>
					<dim>1</dim>
					<dim>3</dim>
					<dim>3</dim>
				</port>
				<port id="1">
					<dim>1</dim>
				</port>
				<port id="2">
					<dim>1</dim>
				</port>
				<port id="3">
					<dim>144</dim>
					<dim>1</dim>
					<dim>1</dim>
					<dim>1</dim>
				</port>
				<port id="4">
					<dim>144</dim>
					<dim>1</dim>
					<dim>1</dim>
					<dim>1</dim>
				</port>
			</input>
			<output>
				<port id="5" precision="FP16">
					<dim>144</dim>
					<dim>1</dim>
					<dim>3</dim>
					<dim>3</dim>
				</port>
			</output>
		</layer>
		<layer id="211" name="6650/value6652_const" type="Const" version="opset1">
			<data element_type="i64" offset="16745" shape="5" size="40"/>
			<output>
				<port id="1" precision="I64">
					<dim>5</dim>
				</port>
			</output>
		</layer>
		<layer id="212" name="6650" type="Reshape" version="opset1">
			<data special_zero="True"/>
			<input>
				<port id="0">
					<dim>144</dim>
					<dim>1</dim>
					<dim>3</dim>
					<dim>3</dim>
				</port>
				<port id="1">
					<dim>5</dim>
				</port>
			</input>
			<output>
				<port id="2" precision="FP16">
					<dim>144</dim>
					<dim>1</dim>
					<dim>1</dim>
					<dim>3</dim>
					<dim>3</dim>
				</port>
			</output>
		</layer>
		<layer id="213" name="388" type="GroupConvolution" version="opset1">
			<data dilations="1,1" output_padding="0,0" pads_begin="1,1" pads_end="1,1" strides="2,2"/>
			<input>
				<port id="0">
					<dim>1</dim>
					<dim>144</dim>
					<dim>64</dim>
					<dim>64</dim>
				</port>
				<port id="1">
					<dim>144</dim>
					<dim>1</dim>
					<dim>1</dim>
					<dim>3</dim>
					<dim>3</dim>
				</port>
			</input>
			<output>
				<port id="2" precision="FP16">
					<dim>1</dim>
					<dim>144</dim>
					<dim>32</dim>
					<dim>32</dim>
				</port>
			</output>
		</layer>
		<layer id="214" name="data_add_1192611931/copy_const407_const" type="Const" version="opset1">
			<data element_type="f16" offset="27163" shape="1,144,1,1" size="288"/>
			<output>
				<port id="1" precision="FP16">
					<dim>1</dim>
					<dim>144</dim>
					<dim>1</dim>
					<dim>1</dim>
				</port>
			</output>
		</layer>
		<layer id="215" name="389/variance/Fused_Add_" type="Add" version="opset1">
			<input>
				<port id="0">
					<dim>1</dim>
					<dim>144</dim>
					<dim>32</dim>
					<dim>32</dim>
				</port>
				<port id="1">
					<dim>1</dim>
					<dim>144</dim>
					<dim>1</dim>
					<dim>1</dim>
				</port>
			</input>
			<output>
				<port id="2" precision="FP16">
					<dim>1</dim>
					<dim>144</dim>
					<dim>32</dim>
					<dim>32</dim>
				</port>
			</output>
		</layer>
		<layer id="216" name="390" type="Clamp" version="opset1">
			<data max="6.0" min="0.0"/>
			<input>
				<port id="0">
					<dim>1</dim>
					<dim>144</dim>
					<dim>32</dim>
					<dim>32</dim>
				</port>
			</input>
			<output>
				<port id="1" precision="FP16">
					<dim>1</dim>
					<dim>144</dim>
					<dim>32</dim>
					<dim>32</dim>
				</port>
			</output>
		</layer>
		<layer id="217" name="14981502_const" type="Const" version="opset1">
			<data element_type="f16" offset="0" shape="" size="2"/>
			<output>
				<port id="1" precision="FP16"/>
			</output>
		</layer>
		<layer id="218" name="14991503_const" type="Const" version="opset1">
			<data element_type="f16" offset="27451" shape="" size="2"/>
			<output>
				<port id="1" precision="FP16"/>
			</output>
		</layer>
		<layer id="219" name="15001504_const" type="Const" version="opset1">
			<data element_type="f16" offset="0" shape="" size="2"/>
			<output>
				<port id="1" precision="FP16"/>
			</output>
		</layer>
		<layer id="220" name="15011505_const" type="Const" version="opset1">
			<data element_type="f16" offset="27451" shape="" size="2"/>
			<output>
				<port id="1" precision="FP16"/>
			</output>
		</layer>
		<layer id="221" name="391/fq_input_0" type="FakeQuantize" version="opset1">
			<data levels="256"/>
			<input>
				<port id="0">
					<dim>1</dim>
					<dim>144</dim>
					<dim>32</dim>
					<dim>32</dim>
				</port>
				<port id="1"/>
				<port id="2"/>
				<port id="3"/>
				<port id="4"/>
			</input>
			<output>
				<port id="5" precision="FP16">
					<dim>1</dim>
					<dim>144</dim>
					<dim>32</dim>
					<dim>32</dim>
				</port>
			</output>
		</layer>
		<layer id="222" name="391/fq_weights_1/Convert_to_float/Cast_05912_const" type="Const" version="opset1">
			<data element_type="u8" offset="27453" shape="32,144,1,1" size="4608"/>
			<output>
				<port id="1" precision="U8">
					<dim>32</dim>
					<dim>144</dim>
					<dim>1</dim>
					<dim>1</dim>
				</port>
			</output>
		</layer>
		<layer id="223" name="391/fq_weights_1/Convert_to_float" type="Convert" version="opset1">
			<data destination_type="f16"/>
			<input>
				<port id="0">
					<dim>32</dim>
					<dim>144</dim>
					<dim>1</dim>
					<dim>1</dim>
				</port>
			</input>
			<output>
				<port id="1" precision="FP16">
					<dim>32</dim>
					<dim>144</dim>
					<dim>1</dim>
					<dim>1</dim>
				</port>
			</output>
		</layer>
		<layer id="224" name="391/fq_weights_1/Copy/out_low4845_const" type="Const" version="opset1">
			<data element_type="f16" offset="0" shape="1" size="2"/>
			<output>
				<port id="1" precision="FP16">
					<dim>1</dim>
				</port>
			</output>
		</layer>
		<layer id="225" name="391/fq_weights_1/Copy/out_high4846_const" type="Const" version="opset1">
			<data element_type="f16" offset="5" shape="1" size="2"/>
			<output>
				<port id="1" precision="FP16">
					<dim>1</dim>
				</port>
			</output>
		</layer>
		<layer id="226" name="15101514_const" type="Const" version="opset1">
			<data element_type="f16" offset="32061" shape="32,1,1,1" size="64"/>
			<output>
				<port id="1" precision="FP16">
					<dim>32</dim>
					<dim>1</dim>
					<dim>1</dim>
					<dim>1</dim>
				</port>
			</output>
		</layer>
		<layer id="227" name="15111515_const" type="Const" version="opset1">
			<data element_type="f16" offset="32125" shape="32,1,1,1" size="64"/>
			<output>
				<port id="1" precision="FP16">
					<dim>32</dim>
					<dim>1</dim>
					<dim>1</dim>
					<dim>1</dim>
				</port>
			</output>
		</layer>
		<layer id="228" name="391/fq_weights_1" type="FakeQuantize" version="opset1">
			<data levels="255"/>
			<input>
				<port id="0">
					<dim>32</dim>
					<dim>144</dim>
					<dim>1</dim>
					<dim>1</dim>
				</port>
				<port id="1">
					<dim>1</dim>
				</port>
				<port id="2">
					<dim>1</dim>
				</port>
				<port id="3">
					<dim>32</dim>
					<dim>1</dim>
					<dim>1</dim>
					<dim>1</dim>
				</port>
				<port id="4">
					<dim>32</dim>
					<dim>1</dim>
					<dim>1</dim>
					<dim>1</dim>
				</port>
			</input>
			<output>
				<port id="5" precision="FP16">
					<dim>32</dim>
					<dim>144</dim>
					<dim>1</dim>
					<dim>1</dim>
				</port>
			</output>
		</layer>
		<layer id="229" name="391" type="Convolution" version="opset1">
			<data dilations="1,1" output_padding="0,0" pads_begin="0,0" pads_end="0,0" strides="1,1"/>
			<input>
				<port id="0">
					<dim>1</dim>
					<dim>144</dim>
					<dim>32</dim>
					<dim>32</dim>
				</port>
				<port id="1">
					<dim>32</dim>
					<dim>144</dim>
					<dim>1</dim>
					<dim>1</dim>
				</port>
			</input>
			<output>
				<port id="2" precision="FP16">
					<dim>1</dim>
					<dim>32</dim>
					<dim>32</dim>
					<dim>32</dim>
				</port>
			</output>
		</layer>
		<layer id="230" name="data_add_1193411939/copy_const412_const" type="Const" version="opset1">
			<data element_type="f16" offset="32189" shape="1,32,1,1" size="64"/>
			<output>
				<port id="1" precision="FP16">
					<dim>1</dim>
					<dim>32</dim>
					<dim>1</dim>
					<dim>1</dim>
				</port>
			</output>
		</layer>
		<layer id="231" name="392/variance/Fused_Add_" type="Add" version="opset1">
			<input>
				<port id="0">
					<dim>1</dim>
					<dim>32</dim>
					<dim>32</dim>
					<dim>32</dim>
				</port>
				<port id="1">
					<dim>1</dim>
					<dim>32</dim>
					<dim>1</dim>
					<dim>1</dim>
				</port>
			</input>
			<output>
				<port id="2" precision="FP16">
					<dim>1</dim>
					<dim>32</dim>
					<dim>32</dim>
					<dim>32</dim>
				</port>
			</output>
		</layer>
		<layer id="232" name="23382342_const" type="Const" version="opset1">
			<data element_type="f16" offset="32253" shape="" size="2"/>
			<output>
				<port id="1" precision="FP16"/>
			</output>
		</layer>
		<layer id="233" name="23392343_const" type="Const" version="opset1">
			<data element_type="f16" offset="32255" shape="" size="2"/>
			<output>
				<port id="1" precision="FP16"/>
			</output>
		</layer>
		<layer id="234" name="23402344_const" type="Const" version="opset1">
			<data element_type="f16" offset="32253" shape="" size="2"/>
			<output>
				<port id="1" precision="FP16"/>
			</output>
		</layer>
		<layer id="235" name="23412345_const" type="Const" version="opset1">
			<data element_type="f16" offset="32255" shape="" size="2"/>
			<output>
				<port id="1" precision="FP16"/>
			</output>
		</layer>
		<layer id="236" name="393/fq_input_0" type="FakeQuantize" version="opset1">
			<data levels="256"/>
			<input>
				<port id="0">
					<dim>1</dim>
					<dim>32</dim>
					<dim>32</dim>
					<dim>32</dim>
				</port>
				<port id="1"/>
				<port id="2"/>
				<port id="3"/>
				<port id="4"/>
			</input>
			<output>
				<port id="5" precision="FP16">
					<dim>1</dim>
					<dim>32</dim>
					<dim>32</dim>
					<dim>32</dim>
				</port>
			</output>
		</layer>
		<layer id="237" name="393/fq_weights_1/Convert_to_float/Cast_05824_const" type="Const" version="opset1">
			<data element_type="u8" offset="32257" shape="192,32,1,1" size="6144"/>
			<output>
				<port id="1" precision="U8">
					<dim>192</dim>
					<dim>32</dim>
					<dim>1</dim>
					<dim>1</dim>
				</port>
			</output>
		</layer>
		<layer id="238" name="393/fq_weights_1/Convert_to_float" type="Convert" version="opset1">
			<data destination_type="f16"/>
			<input>
				<port id="0">
					<dim>192</dim>
					<dim>32</dim>
					<dim>1</dim>
					<dim>1</dim>
				</port>
			</input>
			<output>
				<port id="1" precision="FP16">
					<dim>192</dim>
					<dim>32</dim>
					<dim>1</dim>
					<dim>1</dim>
				</port>
			</output>
		</layer>
		<layer id="239" name="393/fq_weights_1/Copy/out_low4701_const" type="Const" version="opset1">
			<data element_type="f16" offset="0" shape="1" size="2"/>
			<output>
				<port id="1" precision="FP16">
					<dim>1</dim>
				</port>
			</output>
		</layer>
		<layer id="240" name="393/fq_weights_1/Copy/out_high4702_const" type="Const" version="opset1">
			<data element_type="f16" offset="5" shape="1" size="2"/>
			<output>
				<port id="1" precision="FP16">
					<dim>1</dim>
				</port>
			</output>
		</layer>
		<layer id="241" name="23502354_const" type="Const" version="opset1">
			<data element_type="f16" offset="38401" shape="192,1,1,1" size="384"/>
			<output>
				<port id="1" precision="FP16">
					<dim>192</dim>
					<dim>1</dim>
					<dim>1</dim>
					<dim>1</dim>
				</port>
			</output>
		</layer>
		<layer id="242" name="23512355_const" type="Const" version="opset1">
			<data element_type="f16" offset="38785" shape="192,1,1,1" size="384"/>
			<output>
				<port id="1" precision="FP16">
					<dim>192</dim>
					<dim>1</dim>
					<dim>1</dim>
					<dim>1</dim>
				</port>
			</output>
		</layer>
		<layer id="243" name="393/fq_weights_1" type="FakeQuantize" version="opset1">
			<data levels="255"/>
			<input>
				<port id="0">
					<dim>192</dim>
					<dim>32</dim>
					<dim>1</dim>
					<dim>1</dim>
				</port>
				<port id="1">
					<dim>1</dim>
				</port>
				<port id="2">
					<dim>1</dim>
				</port>
				<port id="3">
					<dim>192</dim>
					<dim>1</dim>
					<dim>1</dim>
					<dim>1</dim>
				</port>
				<port id="4">
					<dim>192</dim>
					<dim>1</dim>
					<dim>1</dim>
					<dim>1</dim>
				</port>
			</input>
			<output>
				<port id="5" precision="FP16">
					<dim>192</dim>
					<dim>32</dim>
					<dim>1</dim>
					<dim>1</dim>
				</port>
			</output>
		</layer>
		<layer id="244" name="393" type="Convolution" version="opset1">
			<data dilations="1,1" output_padding="0,0" pads_begin="0,0" pads_end="0,0" strides="1,1"/>
			<input>
				<port id="0">
					<dim>1</dim>
					<dim>32</dim>
					<dim>32</dim>
					<dim>32</dim>
				</port>
				<port id="1">
					<dim>192</dim>
					<dim>32</dim>
					<dim>1</dim>
					<dim>1</dim>
				</port>
			</input>
			<output>
				<port id="2" precision="FP16">
					<dim>1</dim>
					<dim>192</dim>
					<dim>32</dim>
					<dim>32</dim>
				</port>
			</output>
		</layer>
		<layer id="245" name="data_add_1194211947/copy_const416_const" type="Const" version="opset1">
			<data element_type="f16" offset="39169" shape="1,192,1,1" size="384"/>
			<output>
				<port id="1" precision="FP16">
					<dim>1</dim>
					<dim>192</dim>
					<dim>1</dim>
					<dim>1</dim>
				</port>
			</output>
		</layer>
		<layer id="246" name="394/variance/Fused_Add_" type="Add" version="opset1">
			<input>
				<port id="0">
					<dim>1</dim>
					<dim>192</dim>
					<dim>32</dim>
					<dim>32</dim>
				</port>
				<port id="1">
					<dim>1</dim>
					<dim>192</dim>
					<dim>1</dim>
					<dim>1</dim>
				</port>
			</input>
			<output>
				<port id="2" precision="FP16">
					<dim>1</dim>
					<dim>192</dim>
					<dim>32</dim>
					<dim>32</dim>
				</port>
			</output>
		</layer>
		<layer id="247" name="395" type="Clamp" version="opset1">
			<data max="6.0" min="0.0"/>
			<input>
				<port id="0">
					<dim>1</dim>
					<dim>192</dim>
					<dim>32</dim>
					<dim>32</dim>
				</port>
			</input>
			<output>
				<port id="1" precision="FP16">
					<dim>1</dim>
					<dim>192</dim>
					<dim>32</dim>
					<dim>32</dim>
				</port>
			</output>
		</layer>
		<layer id="248" name="20582062_const" type="Const" version="opset1">
			<data element_type="f16" offset="39553" shape="1,192,1,1" size="384"/>
			<output>
				<port id="1" precision="FP16">
					<dim>1</dim>
					<dim>192</dim>
					<dim>1</dim>
					<dim>1</dim>
				</port>
			</output>
		</layer>
		<layer id="249" name="20592063_const" type="Const" version="opset1">
			<data element_type="f16" offset="39937" shape="1,192,1,1" size="384"/>
			<output>
				<port id="1" precision="FP16">
					<dim>1</dim>
					<dim>192</dim>
					<dim>1</dim>
					<dim>1</dim>
				</port>
			</output>
		</layer>
		<layer id="250" name="20602064_const" type="Const" version="opset1">
			<data element_type="f16" offset="39553" shape="1,192,1,1" size="384"/>
			<output>
				<port id="1" precision="FP16">
					<dim>1</dim>
					<dim>192</dim>
					<dim>1</dim>
					<dim>1</dim>
				</port>
			</output>
		</layer>
		<layer id="251" name="20612065_const" type="Const" version="opset1">
			<data element_type="f16" offset="39937" shape="1,192,1,1" size="384"/>
			<output>
				<port id="1" precision="FP16">
					<dim>1</dim>
					<dim>192</dim>
					<dim>1</dim>
					<dim>1</dim>
				</port>
			</output>
		</layer>
		<layer id="252" name="396/fq_input_0" type="FakeQuantize" version="opset1">
			<data levels="256"/>
			<input>
				<port id="0">
					<dim>1</dim>
					<dim>192</dim>
					<dim>32</dim>
					<dim>32</dim>
				</port>
				<port id="1">
					<dim>1</dim>
					<dim>192</dim>
					<dim>1</dim>
					<dim>1</dim>
				</port>
				<port id="2">
					<dim>1</dim>
					<dim>192</dim>
					<dim>1</dim>
					<dim>1</dim>
				</port>
				<port id="3">
					<dim>1</dim>
					<dim>192</dim>
					<dim>1</dim>
					<dim>1</dim>
				</port>
				<port id="4">
					<dim>1</dim>
					<dim>192</dim>
					<dim>1</dim>
					<dim>1</dim>
				</port>
			</input>
			<output>
				<port id="5" precision="FP16">
					<dim>1</dim>
					<dim>192</dim>
					<dim>32</dim>
					<dim>32</dim>
				</port>
			</output>
		</layer>
		<layer id="253" name="396/fq_weights_1/Convert_to_float/Cast_05906_const" type="Const" version="opset1">
			<data element_type="u8" offset="40321" shape="192,1,3,3" size="1728"/>
			<output>
				<port id="1" precision="U8">
					<dim>192</dim>
					<dim>1</dim>
					<dim>3</dim>
					<dim>3</dim>
				</port>
			</output>
		</layer>
		<layer id="254" name="396/fq_weights_1/Convert_to_float" type="Convert" version="opset1">
			<data destination_type="f16"/>
			<input>
				<port id="0">
					<dim>192</dim>
					<dim>1</dim>
					<dim>3</dim>
					<dim>3</dim>
				</port>
			</input>
			<output>
				<port id="1" precision="FP16">
					<dim>192</dim>
					<dim>1</dim>
					<dim>3</dim>
					<dim>3</dim>
				</port>
			</output>
		</layer>
		<layer id="255" name="396/fq_weights_1/Copy/out_low4821_const" type="Const" version="opset1">
			<data element_type="f16" offset="0" shape="1" size="2"/>
			<output>
				<port id="1" precision="FP16">
					<dim>1</dim>
				</port>
			</output>
		</layer>
		<layer id="256" name="396/fq_weights_1/Copy/out_high4822_const" type="Const" version="opset1">
			<data element_type="f16" offset="5" shape="1" size="2"/>
			<output>
				<port id="1" precision="FP16">
					<dim>1</dim>
				</port>
			</output>
		</layer>
		<layer id="257" name="20702074_const" type="Const" version="opset1">
			<data element_type="f16" offset="42049" shape="192,1,1,1" size="384"/>
			<output>
				<port id="1" precision="FP16">
					<dim>192</dim>
					<dim>1</dim>
					<dim>1</dim>
					<dim>1</dim>
				</port>
			</output>
		</layer>
		<layer id="258" name="20712075_const" type="Const" version="opset1">
			<data element_type="f16" offset="42433" shape="192,1,1,1" size="384"/>
			<output>
				<port id="1" precision="FP16">
					<dim>192</dim>
					<dim>1</dim>
					<dim>1</dim>
					<dim>1</dim>
				</port>
			</output>
		</layer>
		<layer id="259" name="396/fq_weights_1" type="FakeQuantize" version="opset1">
			<data levels="255"/>
			<input>
				<port id="0">
					<dim>192</dim>
					<dim>1</dim>
					<dim>3</dim>
					<dim>3</dim>
				</port>
				<port id="1">
					<dim>1</dim>
				</port>
				<port id="2">
					<dim>1</dim>
				</port>
				<port id="3">
					<dim>192</dim>
					<dim>1</dim>
					<dim>1</dim>
					<dim>1</dim>
				</port>
				<port id="4">
					<dim>192</dim>
					<dim>1</dim>
					<dim>1</dim>
					<dim>1</dim>
				</port>
			</input>
			<output>
				<port id="5" precision="FP16">
					<dim>192</dim>
					<dim>1</dim>
					<dim>3</dim>
					<dim>3</dim>
				</port>
			</output>
		</layer>
		<layer id="260" name="6698/value6700_const" type="Const" version="opset1">
			<data element_type="i64" offset="42817" shape="5" size="40"/>
			<output>
				<port id="1" precision="I64">
					<dim>5</dim>
				</port>
			</output>
		</layer>
		<layer id="261" name="6698" type="Reshape" version="opset1">
			<data special_zero="True"/>
			<input>
				<port id="0">
					<dim>192</dim>
					<dim>1</dim>
					<dim>3</dim>
					<dim>3</dim>
				</port>
				<port id="1">
					<dim>5</dim>
				</port>
			</input>
			<output>
				<port id="2" precision="FP16">
					<dim>192</dim>
					<dim>1</dim>
					<dim>1</dim>
					<dim>3</dim>
					<dim>3</dim>
				</port>
			</output>
		</layer>
		<layer id="262" name="396" type="GroupConvolution" version="opset1">
			<data dilations="1,1" output_padding="0,0" pads_begin="1,1" pads_end="1,1" strides="1,1"/>
			<input>
				<port id="0">
					<dim>1</dim>
					<dim>192</dim>
					<dim>32</dim>
					<dim>32</dim>
				</port>
				<port id="1">
					<dim>192</dim>
					<dim>1</dim>
					<dim>1</dim>
					<dim>3</dim>
					<dim>3</dim>
				</port>
			</input>
			<output>
				<port id="2" precision="FP16">
					<dim>1</dim>
					<dim>192</dim>
					<dim>32</dim>
					<dim>32</dim>
				</port>
			</output>
		</layer>
		<layer id="263" name="data_add_1195011955/copy_const421_const" type="Const" version="opset1">
			<data element_type="f16" offset="42857" shape="1,192,1,1" size="384"/>
			<output>
				<port id="1" precision="FP16">
					<dim>1</dim>
					<dim>192</dim>
					<dim>1</dim>
					<dim>1</dim>
				</port>
			</output>
		</layer>
		<layer id="264" name="397/variance/Fused_Add_" type="Add" version="opset1">
			<input>
				<port id="0">
					<dim>1</dim>
					<dim>192</dim>
					<dim>32</dim>
					<dim>32</dim>
				</port>
				<port id="1">
					<dim>1</dim>
					<dim>192</dim>
					<dim>1</dim>
					<dim>1</dim>
				</port>
			</input>
			<output>
				<port id="2" precision="FP16">
					<dim>1</dim>
					<dim>192</dim>
					<dim>32</dim>
					<dim>32</dim>
				</port>
			</output>
		</layer>
		<layer id="265" name="398" type="Clamp" version="opset1">
			<data max="6.0" min="0.0"/>
			<input>
				<port id="0">
					<dim>1</dim>
					<dim>192</dim>
					<dim>32</dim>
					<dim>32</dim>
				</port>
			</input>
			<output>
				<port id="1" precision="FP16">
					<dim>1</dim>
					<dim>192</dim>
					<dim>32</dim>
					<dim>32</dim>
				</port>
			</output>
		</layer>
		<layer id="266" name="12981302_const" type="Const" version="opset1">
			<data element_type="f16" offset="0" shape="" size="2"/>
			<output>
				<port id="1" precision="FP16"/>
			</output>
		</layer>
		<layer id="267" name="12991303_const" type="Const" version="opset1">
			<data element_type="f16" offset="43241" shape="" size="2"/>
			<output>
				<port id="1" precision="FP16"/>
			</output>
		</layer>
		<layer id="268" name="13001304_const" type="Const" version="opset1">
			<data element_type="f16" offset="0" shape="" size="2"/>
			<output>
				<port id="1" precision="FP16"/>
			</output>
		</layer>
		<layer id="269" name="13011305_const" type="Const" version="opset1">
			<data element_type="f16" offset="43241" shape="" size="2"/>
			<output>
				<port id="1" precision="FP16"/>
			</output>
		</layer>
		<layer id="270" name="399/fq_input_0" type="FakeQuantize" version="opset1">
			<data levels="256"/>
			<input>
				<port id="0">
					<dim>1</dim>
					<dim>192</dim>
					<dim>32</dim>
					<dim>32</dim>
				</port>
				<port id="1"/>
				<port id="2"/>
				<port id="3"/>
				<port id="4"/>
			</input>
			<output>
				<port id="5" precision="FP16">
					<dim>1</dim>
					<dim>192</dim>
					<dim>32</dim>
					<dim>32</dim>
				</port>
			</output>
		</layer>
		<layer id="271" name="399/fq_weights_1/Convert_to_float/Cast_05802_const" type="Const" version="opset1">
			<data element_type="u8" offset="43243" shape="32,192,1,1" size="6144"/>
			<output>
				<port id="1" precision="U8">
					<dim>32</dim>
					<dim>192</dim>
					<dim>1</dim>
					<dim>1</dim>
				</port>
			</output>
		</layer>
		<layer id="272" name="399/fq_weights_1/Convert_to_float" type="Convert" version="opset1">
			<data destination_type="f16"/>
			<input>
				<port id="0">
					<dim>32</dim>
					<dim>192</dim>
					<dim>1</dim>
					<dim>1</dim>
				</port>
			</input>
			<output>
				<port id="1" precision="FP16">
					<dim>32</dim>
					<dim>192</dim>
					<dim>1</dim>
					<dim>1</dim>
				</port>
			</output>
		</layer>
		<layer id="273" name="399/fq_weights_1/Copy/out_low4909_const" type="Const" version="opset1">
			<data element_type="f16" offset="0" shape="1" size="2"/>
			<output>
				<port id="1" precision="FP16">
					<dim>1</dim>
				</port>
			</output>
		</layer>
		<layer id="274" name="399/fq_weights_1/Copy/out_high4910_const" type="Const" version="opset1">
			<data element_type="f16" offset="5" shape="1" size="2"/>
			<output>
				<port id="1" precision="FP16">
					<dim>1</dim>
				</port>
			</output>
		</layer>
		<layer id="275" name="13101314_const" type="Const" version="opset1">
			<data element_type="f16" offset="49387" shape="32,1,1,1" size="64"/>
			<output>
				<port id="1" precision="FP16">
					<dim>32</dim>
					<dim>1</dim>
					<dim>1</dim>
					<dim>1</dim>
				</port>
			</output>
		</layer>
		<layer id="276" name="13111315_const" type="Const" version="opset1">
			<data element_type="f16" offset="49451" shape="32,1,1,1" size="64"/>
			<output>
				<port id="1" precision="FP16">
					<dim>32</dim>
					<dim>1</dim>
					<dim>1</dim>
					<dim>1</dim>
				</port>
			</output>
		</layer>
		<layer id="277" name="399/fq_weights_1" type="FakeQuantize" version="opset1">
			<data levels="255"/>
			<input>
				<port id="0">
					<dim>32</dim>
					<dim>192</dim>
					<dim>1</dim>
					<dim>1</dim>
				</port>
				<port id="1">
					<dim>1</dim>
				</port>
				<port id="2">
					<dim>1</dim>
				</port>
				<port id="3">
					<dim>32</dim>
					<dim>1</dim>
					<dim>1</dim>
					<dim>1</dim>
				</port>
				<port id="4">
					<dim>32</dim>
					<dim>1</dim>
					<dim>1</dim>
					<dim>1</dim>
				</port>
			</input>
			<output>
				<port id="5" precision="FP16">
					<dim>32</dim>
					<dim>192</dim>
					<dim>1</dim>
					<dim>1</dim>
				</port>
			</output>
		</layer>
		<layer id="278" name="399" type="Convolution" version="opset1">
			<data dilations="1,1" output_padding="0,0" pads_begin="0,0" pads_end="0,0" strides="1,1"/>
			<input>
				<port id="0">
					<dim>1</dim>
					<dim>192</dim>
					<dim>32</dim>
					<dim>32</dim>
				</port>
				<port id="1">
					<dim>32</dim>
					<dim>192</dim>
					<dim>1</dim>
					<dim>1</dim>
				</port>
			</input>
			<output>
				<port id="2" precision="FP16">
					<dim>1</dim>
					<dim>32</dim>
					<dim>32</dim>
					<dim>32</dim>
				</port>
			</output>
		</layer>
		<layer id="279" name="data_add_1195811963/copy_const426_const" type="Const" version="opset1">
			<data element_type="f16" offset="49515" shape="1,32,1,1" size="64"/>
			<output>
				<port id="1" precision="FP16">
					<dim>1</dim>
					<dim>32</dim>
					<dim>1</dim>
					<dim>1</dim>
				</port>
			</output>
		</layer>
		<layer id="280" name="400/variance/Fused_Add_" type="Add" version="opset1">
			<input>
				<port id="0">
					<dim>1</dim>
					<dim>32</dim>
					<dim>32</dim>
					<dim>32</dim>
				</port>
				<port id="1">
					<dim>1</dim>
					<dim>32</dim>
					<dim>1</dim>
					<dim>1</dim>
				</port>
			</input>
			<output>
				<port id="2" precision="FP16">
					<dim>1</dim>
					<dim>32</dim>
					<dim>32</dim>
					<dim>32</dim>
				</port>
			</output>
		</layer>
		<layer id="281" name="23782382_const" type="Const" version="opset1">
			<data element_type="f16" offset="49579" shape="" size="2"/>
			<output>
				<port id="1" precision="FP16"/>
			</output>
		</layer>
		<layer id="282" name="23792383_const" type="Const" version="opset1">
			<data element_type="f16" offset="49581" shape="" size="2"/>
			<output>
				<port id="1" precision="FP16"/>
			</output>
		</layer>
		<layer id="283" name="23802384_const" type="Const" version="opset1">
			<data element_type="f16" offset="49579" shape="" size="2"/>
			<output>
				<port id="1" precision="FP16"/>
			</output>
		</layer>
		<layer id="284" name="23812385_const" type="Const" version="opset1">
			<data element_type="f16" offset="49581" shape="" size="2"/>
			<output>
				<port id="1" precision="FP16"/>
			</output>
		</layer>
		<layer id="285" name="401/fq_input_0" type="FakeQuantize" version="opset1">
			<data levels="256"/>
			<input>
				<port id="0">
					<dim>1</dim>
					<dim>32</dim>
					<dim>32</dim>
					<dim>32</dim>
				</port>
				<port id="1"/>
				<port id="2"/>
				<port id="3"/>
				<port id="4"/>
			</input>
			<output>
				<port id="5" precision="FP16">
					<dim>1</dim>
					<dim>32</dim>
					<dim>32</dim>
					<dim>32</dim>
				</port>
			</output>
		</layer>
		<layer id="286" name="401" type="Add" version="opset1">
			<input>
				<port id="0">
					<dim>1</dim>
					<dim>32</dim>
					<dim>32</dim>
					<dim>32</dim>
				</port>
				<port id="1">
					<dim>1</dim>
					<dim>32</dim>
					<dim>32</dim>
					<dim>32</dim>
				</port>
			</input>
			<output>
				<port id="2" precision="FP16">
					<dim>1</dim>
					<dim>32</dim>
					<dim>32</dim>
					<dim>32</dim>
				</port>
			</output>
		</layer>
		<layer id="287" name="14381442_const" type="Const" version="opset1">
			<data element_type="f16" offset="49583" shape="" size="2"/>
			<output>
				<port id="1" precision="FP16"/>
			</output>
		</layer>
		<layer id="288" name="14391443_const" type="Const" version="opset1">
			<data element_type="f16" offset="49585" shape="" size="2"/>
			<output>
				<port id="1" precision="FP16"/>
			</output>
		</layer>
		<layer id="289" name="14401444_const" type="Const" version="opset1">
			<data element_type="f16" offset="49583" shape="" size="2"/>
			<output>
				<port id="1" precision="FP16"/>
			</output>
		</layer>
		<layer id="290" name="14411445_const" type="Const" version="opset1">
			<data element_type="f16" offset="49585" shape="" size="2"/>
			<output>
				<port id="1" precision="FP16"/>
			</output>
		</layer>
		<layer id="291" name="402/fq_input_0" type="FakeQuantize" version="opset1">
			<data levels="256"/>
			<input>
				<port id="0">
					<dim>1</dim>
					<dim>32</dim>
					<dim>32</dim>
					<dim>32</dim>
				</port>
				<port id="1"/>
				<port id="2"/>
				<port id="3"/>
				<port id="4"/>
			</input>
			<output>
				<port id="5" precision="FP16">
					<dim>1</dim>
					<dim>32</dim>
					<dim>32</dim>
					<dim>32</dim>
				</port>
			</output>
		</layer>
		<layer id="292" name="402/fq_weights_1/Convert_to_float/Cast_05930_const" type="Const" version="opset1">
			<data element_type="u8" offset="49587" shape="192,32,1,1" size="6144"/>
			<output>
				<port id="1" precision="U8">
					<dim>192</dim>
					<dim>32</dim>
					<dim>1</dim>
					<dim>1</dim>
				</port>
			</output>
		</layer>
		<layer id="293" name="402/fq_weights_1/Convert_to_float" type="Convert" version="opset1">
			<data destination_type="f16"/>
			<input>
				<port id="0">
					<dim>192</dim>
					<dim>32</dim>
					<dim>1</dim>
					<dim>1</dim>
				</port>
			</input>
			<output>
				<port id="1" precision="FP16">
					<dim>192</dim>
					<dim>32</dim>
					<dim>1</dim>
					<dim>1</dim>
				</port>
			</output>
		</layer>
		<layer id="294" name="402/fq_weights_1/Copy/out_low5037_const" type="Const" version="opset1">
			<data element_type="f16" offset="0" shape="1" size="2"/>
			<output>
				<port id="1" precision="FP16">
					<dim>1</dim>
				</port>
			</output>
		</layer>
		<layer id="295" name="402/fq_weights_1/Copy/out_high5038_const" type="Const" version="opset1">
			<data element_type="f16" offset="5" shape="1" size="2"/>
			<output>
				<port id="1" precision="FP16">
					<dim>1</dim>
				</port>
			</output>
		</layer>
		<layer id="296" name="14501454_const" type="Const" version="opset1">
			<data element_type="f16" offset="55731" shape="192,1,1,1" size="384"/>
			<output>
				<port id="1" precision="FP16">
					<dim>192</dim>
					<dim>1</dim>
					<dim>1</dim>
					<dim>1</dim>
				</port>
			</output>
		</layer>
		<layer id="297" name="14511455_const" type="Const" version="opset1">
			<data element_type="f16" offset="56115" shape="192,1,1,1" size="384"/>
			<output>
				<port id="1" precision="FP16">
					<dim>192</dim>
					<dim>1</dim>
					<dim>1</dim>
					<dim>1</dim>
				</port>
			</output>
		</layer>
		<layer id="298" name="402/fq_weights_1" type="FakeQuantize" version="opset1">
			<data levels="255"/>
			<input>
				<port id="0">
					<dim>192</dim>
					<dim>32</dim>
					<dim>1</dim>
					<dim>1</dim>
				</port>
				<port id="1">
					<dim>1</dim>
				</port>
				<port id="2">
					<dim>1</dim>
				</port>
				<port id="3">
					<dim>192</dim>
					<dim>1</dim>
					<dim>1</dim>
					<dim>1</dim>
				</port>
				<port id="4">
					<dim>192</dim>
					<dim>1</dim>
					<dim>1</dim>
					<dim>1</dim>
				</port>
			</input>
			<output>
				<port id="5" precision="FP16">
					<dim>192</dim>
					<dim>32</dim>
					<dim>1</dim>
					<dim>1</dim>
				</port>
			</output>
		</layer>
		<layer id="299" name="402" type="Convolution" version="opset1">
			<data dilations="1,1" output_padding="0,0" pads_begin="0,0" pads_end="0,0" strides="1,1"/>
			<input>
				<port id="0">
					<dim>1</dim>
					<dim>32</dim>
					<dim>32</dim>
					<dim>32</dim>
				</port>
				<port id="1">
					<dim>192</dim>
					<dim>32</dim>
					<dim>1</dim>
					<dim>1</dim>
				</port>
			</input>
			<output>
				<port id="2" precision="FP16">
					<dim>1</dim>
					<dim>192</dim>
					<dim>32</dim>
					<dim>32</dim>
				</port>
			</output>
		</layer>
		<layer id="300" name="data_add_1196611971/copy_const431_const" type="Const" version="opset1">
			<data element_type="f16" offset="56499" shape="1,192,1,1" size="384"/>
			<output>
				<port id="1" precision="FP16">
					<dim>1</dim>
					<dim>192</dim>
					<dim>1</dim>
					<dim>1</dim>
				</port>
			</output>
		</layer>
		<layer id="301" name="403/variance/Fused_Add_" type="Add" version="opset1">
			<input>
				<port id="0">
					<dim>1</dim>
					<dim>192</dim>
					<dim>32</dim>
					<dim>32</dim>
				</port>
				<port id="1">
					<dim>1</dim>
					<dim>192</dim>
					<dim>1</dim>
					<dim>1</dim>
				</port>
			</input>
			<output>
				<port id="2" precision="FP16">
					<dim>1</dim>
					<dim>192</dim>
					<dim>32</dim>
					<dim>32</dim>
				</port>
			</output>
		</layer>
		<layer id="302" name="404" type="Clamp" version="opset1">
			<data max="6.0" min="0.0"/>
			<input>
				<port id="0">
					<dim>1</dim>
					<dim>192</dim>
					<dim>32</dim>
					<dim>32</dim>
				</port>
			</input>
			<output>
				<port id="1" precision="FP16">
					<dim>1</dim>
					<dim>192</dim>
					<dim>32</dim>
					<dim>32</dim>
				</port>
			</output>
		</layer>
		<layer id="303" name="22782282_const" type="Const" version="opset1">
			<data element_type="f16" offset="39553" shape="1,192,1,1" size="384"/>
			<output>
				<port id="1" precision="FP16">
					<dim>1</dim>
					<dim>192</dim>
					<dim>1</dim>
					<dim>1</dim>
				</port>
			</output>
		</layer>
		<layer id="304" name="22792283_const" type="Const" version="opset1">
			<data element_type="f16" offset="56883" shape="1,192,1,1" size="384"/>
			<output>
				<port id="1" precision="FP16">
					<dim>1</dim>
					<dim>192</dim>
					<dim>1</dim>
					<dim>1</dim>
				</port>
			</output>
		</layer>
		<layer id="305" name="22802284_const" type="Const" version="opset1">
			<data element_type="f16" offset="39553" shape="1,192,1,1" size="384"/>
			<output>
				<port id="1" precision="FP16">
					<dim>1</dim>
					<dim>192</dim>
					<dim>1</dim>
					<dim>1</dim>
				</port>
			</output>
		</layer>
		<layer id="306" name="22812285_const" type="Const" version="opset1">
			<data element_type="f16" offset="56883" shape="1,192,1,1" size="384"/>
			<output>
				<port id="1" precision="FP16">
					<dim>1</dim>
					<dim>192</dim>
					<dim>1</dim>
					<dim>1</dim>
				</port>
			</output>
		</layer>
		<layer id="307" name="405/fq_input_0" type="FakeQuantize" version="opset1">
			<data levels="256"/>
			<input>
				<port id="0">
					<dim>1</dim>
					<dim>192</dim>
					<dim>32</dim>
					<dim>32</dim>
				</port>
				<port id="1">
					<dim>1</dim>
					<dim>192</dim>
					<dim>1</dim>
					<dim>1</dim>
				</port>
				<port id="2">
					<dim>1</dim>
					<dim>192</dim>
					<dim>1</dim>
					<dim>1</dim>
				</port>
				<port id="3">
					<dim>1</dim>
					<dim>192</dim>
					<dim>1</dim>
					<dim>1</dim>
				</port>
				<port id="4">
					<dim>1</dim>
					<dim>192</dim>
					<dim>1</dim>
					<dim>1</dim>
				</port>
			</input>
			<output>
				<port id="5" precision="FP16">
					<dim>1</dim>
					<dim>192</dim>
					<dim>32</dim>
					<dim>32</dim>
				</port>
			</output>
		</layer>
		<layer id="308" name="405/fq_weights_1/Convert_to_float/Cast_05888_const" type="Const" version="opset1">
			<data element_type="u8" offset="57267" shape="192,1,3,3" size="1728"/>
			<output>
				<port id="1" precision="U8">
					<dim>192</dim>
					<dim>1</dim>
					<dim>3</dim>
					<dim>3</dim>
				</port>
			</output>
		</layer>
		<layer id="309" name="405/fq_weights_1/Convert_to_float" type="Convert" version="opset1">
			<data destination_type="f16"/>
			<input>
				<port id="0">
					<dim>192</dim>
					<dim>1</dim>
					<dim>3</dim>
					<dim>3</dim>
				</port>
			</input>
			<output>
				<port id="1" precision="FP16">
					<dim>192</dim>
					<dim>1</dim>
					<dim>3</dim>
					<dim>3</dim>
				</port>
			</output>
		</layer>
		<layer id="310" name="405/fq_weights_1/Copy/out_low4741_const" type="Const" version="opset1">
			<data element_type="f16" offset="0" shape="1" size="2"/>
			<output>
				<port id="1" precision="FP16">
					<dim>1</dim>
				</port>
			</output>
		</layer>
		<layer id="311" name="405/fq_weights_1/Copy/out_high4742_const" type="Const" version="opset1">
			<data element_type="f16" offset="5" shape="1" size="2"/>
			<output>
				<port id="1" precision="FP16">
					<dim>1</dim>
				</port>
			</output>
		</layer>
		<layer id="312" name="22902294_const" type="Const" version="opset1">
			<data element_type="f16" offset="58995" shape="192,1,1,1" size="384"/>
			<output>
				<port id="1" precision="FP16">
					<dim>192</dim>
					<dim>1</dim>
					<dim>1</dim>
					<dim>1</dim>
				</port>
			</output>
		</layer>
		<layer id="313" name="22912295_const" type="Const" version="opset1">
			<data element_type="f16" offset="59379" shape="192,1,1,1" size="384"/>
			<output>
				<port id="1" precision="FP16">
					<dim>192</dim>
					<dim>1</dim>
					<dim>1</dim>
					<dim>1</dim>
				</port>
			</output>
		</layer>
		<layer id="314" name="405/fq_weights_1" type="FakeQuantize" version="opset1">
			<data levels="255"/>
			<input>
				<port id="0">
					<dim>192</dim>
					<dim>1</dim>
					<dim>3</dim>
					<dim>3</dim>
				</port>
				<port id="1">
					<dim>1</dim>
				</port>
				<port id="2">
					<dim>1</dim>
				</port>
				<port id="3">
					<dim>192</dim>
					<dim>1</dim>
					<dim>1</dim>
					<dim>1</dim>
				</port>
				<port id="4">
					<dim>192</dim>
					<dim>1</dim>
					<dim>1</dim>
					<dim>1</dim>
				</port>
			</input>
			<output>
				<port id="5" precision="FP16">
					<dim>192</dim>
					<dim>1</dim>
					<dim>3</dim>
					<dim>3</dim>
				</port>
			</output>
		</layer>
		<layer id="315" name="6666/value6668_const" type="Const" version="opset1">
			<data element_type="i64" offset="42817" shape="5" size="40"/>
			<output>
				<port id="1" precision="I64">
					<dim>5</dim>
				</port>
			</output>
		</layer>
		<layer id="316" name="6666" type="Reshape" version="opset1">
			<data special_zero="True"/>
			<input>
				<port id="0">
					<dim>192</dim>
					<dim>1</dim>
					<dim>3</dim>
					<dim>3</dim>
				</port>
				<port id="1">
					<dim>5</dim>
				</port>
			</input>
			<output>
				<port id="2" precision="FP16">
					<dim>192</dim>
					<dim>1</dim>
					<dim>1</dim>
					<dim>3</dim>
					<dim>3</dim>
				</port>
			</output>
		</layer>
		<layer id="317" name="405" type="GroupConvolution" version="opset1">
			<data dilations="1,1" output_padding="0,0" pads_begin="1,1" pads_end="1,1" strides="1,1"/>
			<input>
				<port id="0">
					<dim>1</dim>
					<dim>192</dim>
					<dim>32</dim>
					<dim>32</dim>
				</port>
				<port id="1">
					<dim>192</dim>
					<dim>1</dim>
					<dim>1</dim>
					<dim>3</dim>
					<dim>3</dim>
				</port>
			</input>
			<output>
				<port id="2" precision="FP16">
					<dim>1</dim>
					<dim>192</dim>
					<dim>32</dim>
					<dim>32</dim>
				</port>
			</output>
		</layer>
		<layer id="318" name="data_add_1197411979/copy_const436_const" type="Const" version="opset1">
			<data element_type="f16" offset="59763" shape="1,192,1,1" size="384"/>
			<output>
				<port id="1" precision="FP16">
					<dim>1</dim>
					<dim>192</dim>
					<dim>1</dim>
					<dim>1</dim>
				</port>
			</output>
		</layer>
		<layer id="319" name="406/variance/Fused_Add_" type="Add" version="opset1">
			<input>
				<port id="0">
					<dim>1</dim>
					<dim>192</dim>
					<dim>32</dim>
					<dim>32</dim>
				</port>
				<port id="1">
					<dim>1</dim>
					<dim>192</dim>
					<dim>1</dim>
					<dim>1</dim>
				</port>
			</input>
			<output>
				<port id="2" precision="FP16">
					<dim>1</dim>
					<dim>192</dim>
					<dim>32</dim>
					<dim>32</dim>
				</port>
			</output>
		</layer>
		<layer id="320" name="407" type="Clamp" version="opset1">
			<data max="6.0" min="0.0"/>
			<input>
				<port id="0">
					<dim>1</dim>
					<dim>192</dim>
					<dim>32</dim>
					<dim>32</dim>
				</port>
			</input>
			<output>
				<port id="1" precision="FP16">
					<dim>1</dim>
					<dim>192</dim>
					<dim>32</dim>
					<dim>32</dim>
				</port>
			</output>
		</layer>
		<layer id="321" name="16581662_const" type="Const" version="opset1">
			<data element_type="f16" offset="0" shape="" size="2"/>
			<output>
				<port id="1" precision="FP16"/>
			</output>
		</layer>
		<layer id="322" name="16591663_const" type="Const" version="opset1">
			<data element_type="f16" offset="60147" shape="" size="2"/>
			<output>
				<port id="1" precision="FP16"/>
			</output>
		</layer>
		<layer id="323" name="16601664_const" type="Const" version="opset1">
			<data element_type="f16" offset="0" shape="" size="2"/>
			<output>
				<port id="1" precision="FP16"/>
			</output>
		</layer>
		<layer id="324" name="16611665_const" type="Const" version="opset1">
			<data element_type="f16" offset="60147" shape="" size="2"/>
			<output>
				<port id="1" precision="FP16"/>
			</output>
		</layer>
		<layer id="325" name="408/fq_input_0" type="FakeQuantize" version="opset1">
			<data levels="256"/>
			<input>
				<port id="0">
					<dim>1</dim>
					<dim>192</dim>
					<dim>32</dim>
					<dim>32</dim>
				</port>
				<port id="1"/>
				<port id="2"/>
				<port id="3"/>
				<port id="4"/>
			</input>
			<output>
				<port id="5" precision="FP16">
					<dim>1</dim>
					<dim>192</dim>
					<dim>32</dim>
					<dim>32</dim>
				</port>
			</output>
		</layer>
		<layer id="326" name="408/fq_weights_1/Convert_to_float/Cast_05926_const" type="Const" version="opset1">
			<data element_type="u8" offset="60149" shape="32,192,1,1" size="6144"/>
			<output>
				<port id="1" precision="U8">
					<dim>32</dim>
					<dim>192</dim>
					<dim>1</dim>
					<dim>1</dim>
				</port>
			</output>
		</layer>
		<layer id="327" name="408/fq_weights_1/Convert_to_float" type="Convert" version="opset1">
			<data destination_type="f16"/>
			<input>
				<port id="0">
					<dim>32</dim>
					<dim>192</dim>
					<dim>1</dim>
					<dim>1</dim>
				</port>
			</input>
			<output>
				<port id="1" precision="FP16">
					<dim>32</dim>
					<dim>192</dim>
					<dim>1</dim>
					<dim>1</dim>
				</port>
			</output>
		</layer>
		<layer id="328" name="408/fq_weights_1/Copy/out_low4733_const" type="Const" version="opset1">
			<data element_type="f16" offset="0" shape="1" size="2"/>
			<output>
				<port id="1" precision="FP16">
					<dim>1</dim>
				</port>
			</output>
		</layer>
		<layer id="329" name="408/fq_weights_1/Copy/out_high4734_const" type="Const" version="opset1">
			<data element_type="f16" offset="5" shape="1" size="2"/>
			<output>
				<port id="1" precision="FP16">
					<dim>1</dim>
				</port>
			</output>
		</layer>
		<layer id="330" name="16701674_const" type="Const" version="opset1">
			<data element_type="f16" offset="66293" shape="32,1,1,1" size="64"/>
			<output>
				<port id="1" precision="FP16">
					<dim>32</dim>
					<dim>1</dim>
					<dim>1</dim>
					<dim>1</dim>
				</port>
			</output>
		</layer>
		<layer id="331" name="16711675_const" type="Const" version="opset1">
			<data element_type="f16" offset="66357" shape="32,1,1,1" size="64"/>
			<output>
				<port id="1" precision="FP16">
					<dim>32</dim>
					<dim>1</dim>
					<dim>1</dim>
					<dim>1</dim>
				</port>
			</output>
		</layer>
		<layer id="332" name="408/fq_weights_1" type="FakeQuantize" version="opset1">
			<data levels="255"/>
			<input>
				<port id="0">
					<dim>32</dim>
					<dim>192</dim>
					<dim>1</dim>
					<dim>1</dim>
				</port>
				<port id="1">
					<dim>1</dim>
				</port>
				<port id="2">
					<dim>1</dim>
				</port>
				<port id="3">
					<dim>32</dim>
					<dim>1</dim>
					<dim>1</dim>
					<dim>1</dim>
				</port>
				<port id="4">
					<dim>32</dim>
					<dim>1</dim>
					<dim>1</dim>
					<dim>1</dim>
				</port>
			</input>
			<output>
				<port id="5" precision="FP16">
					<dim>32</dim>
					<dim>192</dim>
					<dim>1</dim>
					<dim>1</dim>
				</port>
			</output>
		</layer>
		<layer id="333" name="408" type="Convolution" version="opset1">
			<data dilations="1,1" output_padding="0,0" pads_begin="0,0" pads_end="0,0" strides="1,1"/>
			<input>
				<port id="0">
					<dim>1</dim>
					<dim>192</dim>
					<dim>32</dim>
					<dim>32</dim>
				</port>
				<port id="1">
					<dim>32</dim>
					<dim>192</dim>
					<dim>1</dim>
					<dim>1</dim>
				</port>
			</input>
			<output>
				<port id="2" precision="FP16">
					<dim>1</dim>
					<dim>32</dim>
					<dim>32</dim>
					<dim>32</dim>
				</port>
			</output>
		</layer>
		<layer id="334" name="data_add_1198211987/copy_const441_const" type="Const" version="opset1">
			<data element_type="f16" offset="66421" shape="1,32,1,1" size="64"/>
			<output>
				<port id="1" precision="FP16">
					<dim>1</dim>
					<dim>32</dim>
					<dim>1</dim>
					<dim>1</dim>
				</port>
			</output>
		</layer>
		<layer id="335" name="409/variance/Fused_Add_" type="Add" version="opset1">
			<input>
				<port id="0">
					<dim>1</dim>
					<dim>32</dim>
					<dim>32</dim>
					<dim>32</dim>
				</port>
				<port id="1">
					<dim>1</dim>
					<dim>32</dim>
					<dim>1</dim>
					<dim>1</dim>
				</port>
			</input>
			<output>
				<port id="2" precision="FP16">
					<dim>1</dim>
					<dim>32</dim>
					<dim>32</dim>
					<dim>32</dim>
				</port>
			</output>
		</layer>
		<layer id="336" name="13981402_const" type="Const" version="opset1">
			<data element_type="f16" offset="66485" shape="" size="2"/>
			<output>
				<port id="1" precision="FP16"/>
			</output>
		</layer>
		<layer id="337" name="13991403_const" type="Const" version="opset1">
			<data element_type="f16" offset="66487" shape="" size="2"/>
			<output>
				<port id="1" precision="FP16"/>
			</output>
		</layer>
		<layer id="338" name="14001404_const" type="Const" version="opset1">
			<data element_type="f16" offset="66485" shape="" size="2"/>
			<output>
				<port id="1" precision="FP16"/>
			</output>
		</layer>
		<layer id="339" name="14011405_const" type="Const" version="opset1">
			<data element_type="f16" offset="66487" shape="" size="2"/>
			<output>
				<port id="1" precision="FP16"/>
			</output>
		</layer>
		<layer id="340" name="410/fq_input_0" type="FakeQuantize" version="opset1">
			<data levels="256"/>
			<input>
				<port id="0">
					<dim>1</dim>
					<dim>32</dim>
					<dim>32</dim>
					<dim>32</dim>
				</port>
				<port id="1"/>
				<port id="2"/>
				<port id="3"/>
				<port id="4"/>
			</input>
			<output>
				<port id="5" precision="FP16">
					<dim>1</dim>
					<dim>32</dim>
					<dim>32</dim>
					<dim>32</dim>
				</port>
			</output>
		</layer>
		<layer id="341" name="410" type="Add" version="opset1">
			<input>
				<port id="0">
					<dim>1</dim>
					<dim>32</dim>
					<dim>32</dim>
					<dim>32</dim>
				</port>
				<port id="1">
					<dim>1</dim>
					<dim>32</dim>
					<dim>32</dim>
					<dim>32</dim>
				</port>
			</input>
			<output>
				<port id="2" precision="FP16">
					<dim>1</dim>
					<dim>32</dim>
					<dim>32</dim>
					<dim>32</dim>
				</port>
			</output>
		</layer>
		<layer id="342" name="12781282_const" type="Const" version="opset1">
			<data element_type="f16" offset="66489" shape="" size="2"/>
			<output>
				<port id="1" precision="FP16"/>
			</output>
		</layer>
		<layer id="343" name="12791283_const" type="Const" version="opset1">
			<data element_type="f16" offset="66491" shape="" size="2"/>
			<output>
				<port id="1" precision="FP16"/>
			</output>
		</layer>
		<layer id="344" name="12801284_const" type="Const" version="opset1">
			<data element_type="f16" offset="66489" shape="" size="2"/>
			<output>
				<port id="1" precision="FP16"/>
			</output>
		</layer>
		<layer id="345" name="12811285_const" type="Const" version="opset1">
			<data element_type="f16" offset="66491" shape="" size="2"/>
			<output>
				<port id="1" precision="FP16"/>
			</output>
		</layer>
		<layer id="346" name="411/fq_input_0" type="FakeQuantize" version="opset1">
			<data levels="256"/>
			<input>
				<port id="0">
					<dim>1</dim>
					<dim>32</dim>
					<dim>32</dim>
					<dim>32</dim>
				</port>
				<port id="1"/>
				<port id="2"/>
				<port id="3"/>
				<port id="4"/>
			</input>
			<output>
				<port id="5" precision="FP16">
					<dim>1</dim>
					<dim>32</dim>
					<dim>32</dim>
					<dim>32</dim>
				</port>
			</output>
		</layer>
		<layer id="347" name="411/fq_weights_1/Convert_to_float/Cast_05950_const" type="Const" version="opset1">
			<data element_type="u8" offset="66493" shape="192,32,1,1" size="6144"/>
			<output>
				<port id="1" precision="U8">
					<dim>192</dim>
					<dim>32</dim>
					<dim>1</dim>
					<dim>1</dim>
				</port>
			</output>
		</layer>
		<layer id="348" name="411/fq_weights_1/Convert_to_float" type="Convert" version="opset1">
			<data destination_type="f16"/>
			<input>
				<port id="0">
					<dim>192</dim>
					<dim>32</dim>
					<dim>1</dim>
					<dim>1</dim>
				</port>
			</input>
			<output>
				<port id="1" precision="FP16">
					<dim>192</dim>
					<dim>32</dim>
					<dim>1</dim>
					<dim>1</dim>
				</port>
			</output>
		</layer>
		<layer id="349" name="411/fq_weights_1/Copy/out_low4885_const" type="Const" version="opset1">
			<data element_type="f16" offset="0" shape="1" size="2"/>
			<output>
				<port id="1" precision="FP16">
					<dim>1</dim>
				</port>
			</output>
		</layer>
		<layer id="350" name="411/fq_weights_1/Copy/out_high4886_const" type="Const" version="opset1">
			<data element_type="f16" offset="5" shape="1" size="2"/>
			<output>
				<port id="1" precision="FP16">
					<dim>1</dim>
				</port>
			</output>
		</layer>
		<layer id="351" name="12901294_const" type="Const" version="opset1">
			<data element_type="f16" offset="72637" shape="192,1,1,1" size="384"/>
			<output>
				<port id="1" precision="FP16">
					<dim>192</dim>
					<dim>1</dim>
					<dim>1</dim>
					<dim>1</dim>
				</port>
			</output>
		</layer>
		<layer id="352" name="12911295_const" type="Const" version="opset1">
			<data element_type="f16" offset="73021" shape="192,1,1,1" size="384"/>
			<output>
				<port id="1" precision="FP16">
					<dim>192</dim>
					<dim>1</dim>
					<dim>1</dim>
					<dim>1</dim>
				</port>
			</output>
		</layer>
		<layer id="353" name="411/fq_weights_1" type="FakeQuantize" version="opset1">
			<data levels="255"/>
			<input>
				<port id="0">
					<dim>192</dim>
					<dim>32</dim>
					<dim>1</dim>
					<dim>1</dim>
				</port>
				<port id="1">
					<dim>1</dim>
				</port>
				<port id="2">
					<dim>1</dim>
				</port>
				<port id="3">
					<dim>192</dim>
					<dim>1</dim>
					<dim>1</dim>
					<dim>1</dim>
				</port>
				<port id="4">
					<dim>192</dim>
					<dim>1</dim>
					<dim>1</dim>
					<dim>1</dim>
				</port>
			</input>
			<output>
				<port id="5" precision="FP16">
					<dim>192</dim>
					<dim>32</dim>
					<dim>1</dim>
					<dim>1</dim>
				</port>
			</output>
		</layer>
		<layer id="354" name="411" type="Convolution" version="opset1">
			<data dilations="1,1" output_padding="0,0" pads_begin="0,0" pads_end="0,0" strides="1,1"/>
			<input>
				<port id="0">
					<dim>1</dim>
					<dim>32</dim>
					<dim>32</dim>
					<dim>32</dim>
				</port>
				<port id="1">
					<dim>192</dim>
					<dim>32</dim>
					<dim>1</dim>
					<dim>1</dim>
				</port>
			</input>
			<output>
				<port id="2" precision="FP16">
					<dim>1</dim>
					<dim>192</dim>
					<dim>32</dim>
					<dim>32</dim>
				</port>
			</output>
		</layer>
		<layer id="355" name="data_add_1199011995/copy_const446_const" type="Const" version="opset1">
			<data element_type="f16" offset="73405" shape="1,192,1,1" size="384"/>
			<output>
				<port id="1" precision="FP16">
					<dim>1</dim>
					<dim>192</dim>
					<dim>1</dim>
					<dim>1</dim>
				</port>
			</output>
		</layer>
		<layer id="356" name="412/variance/Fused_Add_" type="Add" version="opset1">
			<input>
				<port id="0">
					<dim>1</dim>
					<dim>192</dim>
					<dim>32</dim>
					<dim>32</dim>
				</port>
				<port id="1">
					<dim>1</dim>
					<dim>192</dim>
					<dim>1</dim>
					<dim>1</dim>
				</port>
			</input>
			<output>
				<port id="2" precision="FP16">
					<dim>1</dim>
					<dim>192</dim>
					<dim>32</dim>
					<dim>32</dim>
				</port>
			</output>
		</layer>
		<layer id="357" name="413" type="Clamp" version="opset1">
			<data max="6.0" min="0.0"/>
			<input>
				<port id="0">
					<dim>1</dim>
					<dim>192</dim>
					<dim>32</dim>
					<dim>32</dim>
				</port>
			</input>
			<output>
				<port id="1" precision="FP16">
					<dim>1</dim>
					<dim>192</dim>
					<dim>32</dim>
					<dim>32</dim>
				</port>
			</output>
		</layer>
		<layer id="358" name="24382442_const" type="Const" version="opset1">
			<data element_type="f16" offset="39553" shape="1,192,1,1" size="384"/>
			<output>
				<port id="1" precision="FP16">
					<dim>1</dim>
					<dim>192</dim>
					<dim>1</dim>
					<dim>1</dim>
				</port>
			</output>
		</layer>
		<layer id="359" name="24392443_const" type="Const" version="opset1">
			<data element_type="f16" offset="73789" shape="1,192,1,1" size="384"/>
			<output>
				<port id="1" precision="FP16">
					<dim>1</dim>
					<dim>192</dim>
					<dim>1</dim>
					<dim>1</dim>
				</port>
			</output>
		</layer>
		<layer id="360" name="24402444_const" type="Const" version="opset1">
			<data element_type="f16" offset="39553" shape="1,192,1,1" size="384"/>
			<output>
				<port id="1" precision="FP16">
					<dim>1</dim>
					<dim>192</dim>
					<dim>1</dim>
					<dim>1</dim>
				</port>
			</output>
		</layer>
		<layer id="361" name="24412445_const" type="Const" version="opset1">
			<data element_type="f16" offset="73789" shape="1,192,1,1" size="384"/>
			<output>
				<port id="1" precision="FP16">
					<dim>1</dim>
					<dim>192</dim>
					<dim>1</dim>
					<dim>1</dim>
				</port>
			</output>
		</layer>
		<layer id="362" name="414/fq_input_0" type="FakeQuantize" version="opset1">
			<data levels="256"/>
			<input>
				<port id="0">
					<dim>1</dim>
					<dim>192</dim>
					<dim>32</dim>
					<dim>32</dim>
				</port>
				<port id="1">
					<dim>1</dim>
					<dim>192</dim>
					<dim>1</dim>
					<dim>1</dim>
				</port>
				<port id="2">
					<dim>1</dim>
					<dim>192</dim>
					<dim>1</dim>
					<dim>1</dim>
				</port>
				<port id="3">
					<dim>1</dim>
					<dim>192</dim>
					<dim>1</dim>
					<dim>1</dim>
				</port>
				<port id="4">
					<dim>1</dim>
					<dim>192</dim>
					<dim>1</dim>
					<dim>1</dim>
				</port>
			</input>
			<output>
				<port id="5" precision="FP16">
					<dim>1</dim>
					<dim>192</dim>
					<dim>32</dim>
					<dim>32</dim>
				</port>
			</output>
		</layer>
		<layer id="363" name="414/fq_weights_1/Convert_to_float/Cast_05866_const" type="Const" version="opset1">
			<data element_type="u8" offset="74173" shape="192,1,3,3" size="1728"/>
			<output>
				<port id="1" precision="U8">
					<dim>192</dim>
					<dim>1</dim>
					<dim>3</dim>
					<dim>3</dim>
				</port>
			</output>
		</layer>
		<layer id="364" name="414/fq_weights_1/Convert_to_float" type="Convert" version="opset1">
			<data destination_type="f16"/>
			<input>
				<port id="0">
					<dim>192</dim>
					<dim>1</dim>
					<dim>3</dim>
					<dim>3</dim>
				</port>
			</input>
			<output>
				<port id="1" precision="FP16">
					<dim>192</dim>
					<dim>1</dim>
					<dim>3</dim>
					<dim>3</dim>
				</port>
			</output>
		</layer>
		<layer id="365" name="414/fq_weights_1/Copy/out_low4853_const" type="Const" version="opset1">
			<data element_type="f16" offset="0" shape="1" size="2"/>
			<output>
				<port id="1" precision="FP16">
					<dim>1</dim>
				</port>
			</output>
		</layer>
		<layer id="366" name="414/fq_weights_1/Copy/out_high4854_const" type="Const" version="opset1">
			<data element_type="f16" offset="5" shape="1" size="2"/>
			<output>
				<port id="1" precision="FP16">
					<dim>1</dim>
				</port>
			</output>
		</layer>
		<layer id="367" name="24502454_const" type="Const" version="opset1">
			<data element_type="f16" offset="75901" shape="192,1,1,1" size="384"/>
			<output>
				<port id="1" precision="FP16">
					<dim>192</dim>
					<dim>1</dim>
					<dim>1</dim>
					<dim>1</dim>
				</port>
			</output>
		</layer>
		<layer id="368" name="24512455_const" type="Const" version="opset1">
			<data element_type="f16" offset="76285" shape="192,1,1,1" size="384"/>
			<output>
				<port id="1" precision="FP16">
					<dim>192</dim>
					<dim>1</dim>
					<dim>1</dim>
					<dim>1</dim>
				</port>
			</output>
		</layer>
		<layer id="369" name="414/fq_weights_1" type="FakeQuantize" version="opset1">
			<data levels="255"/>
			<input>
				<port id="0">
					<dim>192</dim>
					<dim>1</dim>
					<dim>3</dim>
					<dim>3</dim>
				</port>
				<port id="1">
					<dim>1</dim>
				</port>
				<port id="2">
					<dim>1</dim>
				</port>
				<port id="3">
					<dim>192</dim>
					<dim>1</dim>
					<dim>1</dim>
					<dim>1</dim>
				</port>
				<port id="4">
					<dim>192</dim>
					<dim>1</dim>
					<dim>1</dim>
					<dim>1</dim>
				</port>
			</input>
			<output>
				<port id="5" precision="FP16">
					<dim>192</dim>
					<dim>1</dim>
					<dim>3</dim>
					<dim>3</dim>
				</port>
			</output>
		</layer>
		<layer id="370" name="6642/value6644_const" type="Const" version="opset1">
			<data element_type="i64" offset="42817" shape="5" size="40"/>
			<output>
				<port id="1" precision="I64">
					<dim>5</dim>
				</port>
			</output>
		</layer>
		<layer id="371" name="6642" type="Reshape" version="opset1">
			<data special_zero="True"/>
			<input>
				<port id="0">
					<dim>192</dim>
					<dim>1</dim>
					<dim>3</dim>
					<dim>3</dim>
				</port>
				<port id="1">
					<dim>5</dim>
				</port>
			</input>
			<output>
				<port id="2" precision="FP16">
					<dim>192</dim>
					<dim>1</dim>
					<dim>1</dim>
					<dim>3</dim>
					<dim>3</dim>
				</port>
			</output>
		</layer>
		<layer id="372" name="414" type="GroupConvolution" version="opset1">
			<data dilations="1,1" output_padding="0,0" pads_begin="1,1" pads_end="1,1" strides="2,2"/>
			<input>
				<port id="0">
					<dim>1</dim>
					<dim>192</dim>
					<dim>32</dim>
					<dim>32</dim>
				</port>
				<port id="1">
					<dim>192</dim>
					<dim>1</dim>
					<dim>1</dim>
					<dim>3</dim>
					<dim>3</dim>
				</port>
			</input>
			<output>
				<port id="2" precision="FP16">
					<dim>1</dim>
					<dim>192</dim>
					<dim>16</dim>
					<dim>16</dim>
				</port>
			</output>
		</layer>
		<layer id="373" name="data_add_1199812003/copy_const451_const" type="Const" version="opset1">
			<data element_type="f16" offset="76669" shape="1,192,1,1" size="384"/>
			<output>
				<port id="1" precision="FP16">
					<dim>1</dim>
					<dim>192</dim>
					<dim>1</dim>
					<dim>1</dim>
				</port>
			</output>
		</layer>
		<layer id="374" name="415/variance/Fused_Add_" type="Add" version="opset1">
			<input>
				<port id="0">
					<dim>1</dim>
					<dim>192</dim>
					<dim>16</dim>
					<dim>16</dim>
				</port>
				<port id="1">
					<dim>1</dim>
					<dim>192</dim>
					<dim>1</dim>
					<dim>1</dim>
				</port>
			</input>
			<output>
				<port id="2" precision="FP16">
					<dim>1</dim>
					<dim>192</dim>
					<dim>16</dim>
					<dim>16</dim>
				</port>
			</output>
		</layer>
		<layer id="375" name="416" type="Clamp" version="opset1">
			<data max="6.0" min="0.0"/>
			<input>
				<port id="0">
					<dim>1</dim>
					<dim>192</dim>
					<dim>16</dim>
					<dim>16</dim>
				</port>
			</input>
			<output>
				<port id="1" precision="FP16">
					<dim>1</dim>
					<dim>192</dim>
					<dim>16</dim>
					<dim>16</dim>
				</port>
			</output>
		</layer>
		<layer id="376" name="22582262_const" type="Const" version="opset1">
			<data element_type="f16" offset="0" shape="" size="2"/>
			<output>
				<port id="1" precision="FP16"/>
			</output>
		</layer>
		<layer id="377" name="22592263_const" type="Const" version="opset1">
			<data element_type="f16" offset="77053" shape="" size="2"/>
			<output>
				<port id="1" precision="FP16"/>
			</output>
		</layer>
		<layer id="378" name="22602264_const" type="Const" version="opset1">
			<data element_type="f16" offset="0" shape="" size="2"/>
			<output>
				<port id="1" precision="FP16"/>
			</output>
		</layer>
		<layer id="379" name="22612265_const" type="Const" version="opset1">
			<data element_type="f16" offset="77053" shape="" size="2"/>
			<output>
				<port id="1" precision="FP16"/>
			</output>
		</layer>
		<layer id="380" name="417/fq_input_0" type="FakeQuantize" version="opset1">
			<data levels="256"/>
			<input>
				<port id="0">
					<dim>1</dim>
					<dim>192</dim>
					<dim>16</dim>
					<dim>16</dim>
				</port>
				<port id="1"/>
				<port id="2"/>
				<port id="3"/>
				<port id="4"/>
			</input>
			<output>
				<port id="5" precision="FP16">
					<dim>1</dim>
					<dim>192</dim>
					<dim>16</dim>
					<dim>16</dim>
				</port>
			</output>
		</layer>
		<layer id="381" name="417/fq_weights_1/Convert_to_float/Cast_05808_const" type="Const" version="opset1">
			<data element_type="u8" offset="77055" shape="64,192,1,1" size="12288"/>
			<output>
				<port id="1" precision="U8">
					<dim>64</dim>
					<dim>192</dim>
					<dim>1</dim>
					<dim>1</dim>
				</port>
			</output>
		</layer>
		<layer id="382" name="417/fq_weights_1/Convert_to_float" type="Convert" version="opset1">
			<data destination_type="f16"/>
			<input>
				<port id="0">
					<dim>64</dim>
					<dim>192</dim>
					<dim>1</dim>
					<dim>1</dim>
				</port>
			</input>
			<output>
				<port id="1" precision="FP16">
					<dim>64</dim>
					<dim>192</dim>
					<dim>1</dim>
					<dim>1</dim>
				</port>
			</output>
		</layer>
		<layer id="383" name="417/fq_weights_1/Copy/out_low4869_const" type="Const" version="opset1">
			<data element_type="f16" offset="0" shape="1" size="2"/>
			<output>
				<port id="1" precision="FP16">
					<dim>1</dim>
				</port>
			</output>
		</layer>
		<layer id="384" name="417/fq_weights_1/Copy/out_high4870_const" type="Const" version="opset1">
			<data element_type="f16" offset="5" shape="1" size="2"/>
			<output>
				<port id="1" precision="FP16">
					<dim>1</dim>
				</port>
			</output>
		</layer>
		<layer id="385" name="22702274_const" type="Const" version="opset1">
			<data element_type="f16" offset="89343" shape="64,1,1,1" size="128"/>
			<output>
				<port id="1" precision="FP16">
					<dim>64</dim>
					<dim>1</dim>
					<dim>1</dim>
					<dim>1</dim>
				</port>
			</output>
		</layer>
		<layer id="386" name="22712275_const" type="Const" version="opset1">
			<data element_type="f16" offset="89471" shape="64,1,1,1" size="128"/>
			<output>
				<port id="1" precision="FP16">
					<dim>64</dim>
					<dim>1</dim>
					<dim>1</dim>
					<dim>1</dim>
				</port>
			</output>
		</layer>
		<layer id="387" name="417/fq_weights_1" type="FakeQuantize" version="opset1">
			<data levels="255"/>
			<input>
				<port id="0">
					<dim>64</dim>
					<dim>192</dim>
					<dim>1</dim>
					<dim>1</dim>
				</port>
				<port id="1">
					<dim>1</dim>
				</port>
				<port id="2">
					<dim>1</dim>
				</port>
				<port id="3">
					<dim>64</dim>
					<dim>1</dim>
					<dim>1</dim>
					<dim>1</dim>
				</port>
				<port id="4">
					<dim>64</dim>
					<dim>1</dim>
					<dim>1</dim>
					<dim>1</dim>
				</port>
			</input>
			<output>
				<port id="5" precision="FP16">
					<dim>64</dim>
					<dim>192</dim>
					<dim>1</dim>
					<dim>1</dim>
				</port>
			</output>
		</layer>
		<layer id="388" name="417" type="Convolution" version="opset1">
			<data dilations="1,1" output_padding="0,0" pads_begin="0,0" pads_end="0,0" strides="1,1"/>
			<input>
				<port id="0">
					<dim>1</dim>
					<dim>192</dim>
					<dim>16</dim>
					<dim>16</dim>
				</port>
				<port id="1">
					<dim>64</dim>
					<dim>192</dim>
					<dim>1</dim>
					<dim>1</dim>
				</port>
			</input>
			<output>
				<port id="2" precision="FP16">
					<dim>1</dim>
					<dim>64</dim>
					<dim>16</dim>
					<dim>16</dim>
				</port>
			</output>
		</layer>
		<layer id="389" name="data_add_1200612011/copy_const456_const" type="Const" version="opset1">
			<data element_type="f16" offset="89599" shape="1,64,1,1" size="128"/>
			<output>
				<port id="1" precision="FP16">
					<dim>1</dim>
					<dim>64</dim>
					<dim>1</dim>
					<dim>1</dim>
				</port>
			</output>
		</layer>
		<layer id="390" name="418/variance/Fused_Add_" type="Add" version="opset1">
			<input>
				<port id="0">
					<dim>1</dim>
					<dim>64</dim>
					<dim>16</dim>
					<dim>16</dim>
				</port>
				<port id="1">
					<dim>1</dim>
					<dim>64</dim>
					<dim>1</dim>
					<dim>1</dim>
				</port>
			</input>
			<output>
				<port id="2" precision="FP16">
					<dim>1</dim>
					<dim>64</dim>
					<dim>16</dim>
					<dim>16</dim>
				</port>
			</output>
		</layer>
		<layer id="391" name="14181422_const" type="Const" version="opset1">
			<data element_type="f16" offset="89727" shape="" size="2"/>
			<output>
				<port id="1" precision="FP16"/>
			</output>
		</layer>
		<layer id="392" name="14191423_const" type="Const" version="opset1">
			<data element_type="f16" offset="89729" shape="" size="2"/>
			<output>
				<port id="1" precision="FP16"/>
			</output>
		</layer>
		<layer id="393" name="14201424_const" type="Const" version="opset1">
			<data element_type="f16" offset="89727" shape="" size="2"/>
			<output>
				<port id="1" precision="FP16"/>
			</output>
		</layer>
		<layer id="394" name="14211425_const" type="Const" version="opset1">
			<data element_type="f16" offset="89729" shape="" size="2"/>
			<output>
				<port id="1" precision="FP16"/>
			</output>
		</layer>
		<layer id="395" name="419/fq_input_0" type="FakeQuantize" version="opset1">
			<data levels="256"/>
			<input>
				<port id="0">
					<dim>1</dim>
					<dim>64</dim>
					<dim>16</dim>
					<dim>16</dim>
				</port>
				<port id="1"/>
				<port id="2"/>
				<port id="3"/>
				<port id="4"/>
			</input>
			<output>
				<port id="5" precision="FP16">
					<dim>1</dim>
					<dim>64</dim>
					<dim>16</dim>
					<dim>16</dim>
				</port>
			</output>
		</layer>
		<layer id="396" name="419/fq_weights_1/Convert_to_float/Cast_05938_const" type="Const" version="opset1">
			<data element_type="u8" offset="89731" shape="384,64,1,1" size="24576"/>
			<output>
				<port id="1" precision="U8">
					<dim>384</dim>
					<dim>64</dim>
					<dim>1</dim>
					<dim>1</dim>
				</port>
			</output>
		</layer>
		<layer id="397" name="419/fq_weights_1/Convert_to_float" type="Convert" version="opset1">
			<data destination_type="f16"/>
			<input>
				<port id="0">
					<dim>384</dim>
					<dim>64</dim>
					<dim>1</dim>
					<dim>1</dim>
				</port>
			</input>
			<output>
				<port id="1" precision="FP16">
					<dim>384</dim>
					<dim>64</dim>
					<dim>1</dim>
					<dim>1</dim>
				</port>
			</output>
		</layer>
		<layer id="398" name="419/fq_weights_1/Copy/out_low4677_const" type="Const" version="opset1">
			<data element_type="f16" offset="0" shape="1" size="2"/>
			<output>
				<port id="1" precision="FP16">
					<dim>1</dim>
				</port>
			</output>
		</layer>
		<layer id="399" name="419/fq_weights_1/Copy/out_high4678_const" type="Const" version="opset1">
			<data element_type="f16" offset="5" shape="1" size="2"/>
			<output>
				<port id="1" precision="FP16">
					<dim>1</dim>
				</port>
			</output>
		</layer>
		<layer id="400" name="14301434_const" type="Const" version="opset1">
			<data element_type="f16" offset="114307" shape="384,1,1,1" size="768"/>
			<output>
				<port id="1" precision="FP16">
					<dim>384</dim>
					<dim>1</dim>
					<dim>1</dim>
					<dim>1</dim>
				</port>
			</output>
		</layer>
		<layer id="401" name="14311435_const" type="Const" version="opset1">
			<data element_type="f16" offset="115075" shape="384,1,1,1" size="768"/>
			<output>
				<port id="1" precision="FP16">
					<dim>384</dim>
					<dim>1</dim>
					<dim>1</dim>
					<dim>1</dim>
				</port>
			</output>
		</layer>
		<layer id="402" name="419/fq_weights_1" type="FakeQuantize" version="opset1">
			<data levels="255"/>
			<input>
				<port id="0">
					<dim>384</dim>
					<dim>64</dim>
					<dim>1</dim>
					<dim>1</dim>
				</port>
				<port id="1">
					<dim>1</dim>
				</port>
				<port id="2">
					<dim>1</dim>
				</port>
				<port id="3">
					<dim>384</dim>
					<dim>1</dim>
					<dim>1</dim>
					<dim>1</dim>
				</port>
				<port id="4">
					<dim>384</dim>
					<dim>1</dim>
					<dim>1</dim>
					<dim>1</dim>
				</port>
			</input>
			<output>
				<port id="5" precision="FP16">
					<dim>384</dim>
					<dim>64</dim>
					<dim>1</dim>
					<dim>1</dim>
				</port>
			</output>
		</layer>
		<layer id="403" name="419" type="Convolution" version="opset1">
			<data dilations="1,1" output_padding="0,0" pads_begin="0,0" pads_end="0,0" strides="1,1"/>
			<input>
				<port id="0">
					<dim>1</dim>
					<dim>64</dim>
					<dim>16</dim>
					<dim>16</dim>
				</port>
				<port id="1">
					<dim>384</dim>
					<dim>64</dim>
					<dim>1</dim>
					<dim>1</dim>
				</port>
			</input>
			<output>
				<port id="2" precision="FP16">
					<dim>1</dim>
					<dim>384</dim>
					<dim>16</dim>
					<dim>16</dim>
				</port>
			</output>
		</layer>
		<layer id="404" name="data_add_1201412019/copy_const460_const" type="Const" version="opset1">
			<data element_type="f16" offset="115843" shape="1,384,1,1" size="768"/>
			<output>
				<port id="1" precision="FP16">
					<dim>1</dim>
					<dim>384</dim>
					<dim>1</dim>
					<dim>1</dim>
				</port>
			</output>
		</layer>
		<layer id="405" name="420/variance/Fused_Add_" type="Add" version="opset1">
			<input>
				<port id="0">
					<dim>1</dim>
					<dim>384</dim>
					<dim>16</dim>
					<dim>16</dim>
				</port>
				<port id="1">
					<dim>1</dim>
					<dim>384</dim>
					<dim>1</dim>
					<dim>1</dim>
				</port>
			</input>
			<output>
				<port id="2" precision="FP16">
					<dim>1</dim>
					<dim>384</dim>
					<dim>16</dim>
					<dim>16</dim>
				</port>
			</output>
		</layer>
		<layer id="406" name="421" type="Clamp" version="opset1">
			<data max="6.0" min="0.0"/>
			<input>
				<port id="0">
					<dim>1</dim>
					<dim>384</dim>
					<dim>16</dim>
					<dim>16</dim>
				</port>
			</input>
			<output>
				<port id="1" precision="FP16">
					<dim>1</dim>
					<dim>384</dim>
					<dim>16</dim>
					<dim>16</dim>
				</port>
			</output>
		</layer>
		<layer id="407" name="23982402_const" type="Const" version="opset1">
			<data element_type="f16" offset="116611" shape="1,384,1,1" size="768"/>
			<output>
				<port id="1" precision="FP16">
					<dim>1</dim>
					<dim>384</dim>
					<dim>1</dim>
					<dim>1</dim>
				</port>
			</output>
		</layer>
		<layer id="408" name="23992403_const" type="Const" version="opset1">
			<data element_type="f16" offset="117379" shape="1,384,1,1" size="768"/>
			<output>
				<port id="1" precision="FP16">
					<dim>1</dim>
					<dim>384</dim>
					<dim>1</dim>
					<dim>1</dim>
				</port>
			</output>
		</layer>
		<layer id="409" name="24002404_const" type="Const" version="opset1">
			<data element_type="f16" offset="116611" shape="1,384,1,1" size="768"/>
			<output>
				<port id="1" precision="FP16">
					<dim>1</dim>
					<dim>384</dim>
					<dim>1</dim>
					<dim>1</dim>
				</port>
			</output>
		</layer>
		<layer id="410" name="24012405_const" type="Const" version="opset1">
			<data element_type="f16" offset="117379" shape="1,384,1,1" size="768"/>
			<output>
				<port id="1" precision="FP16">
					<dim>1</dim>
					<dim>384</dim>
					<dim>1</dim>
					<dim>1</dim>
				</port>
			</output>
		</layer>
		<layer id="411" name="422/fq_input_0" type="FakeQuantize" version="opset1">
			<data levels="256"/>
			<input>
				<port id="0">
					<dim>1</dim>
					<dim>384</dim>
					<dim>16</dim>
					<dim>16</dim>
				</port>
				<port id="1">
					<dim>1</dim>
					<dim>384</dim>
					<dim>1</dim>
					<dim>1</dim>
				</port>
				<port id="2">
					<dim>1</dim>
					<dim>384</dim>
					<dim>1</dim>
					<dim>1</dim>
				</port>
				<port id="3">
					<dim>1</dim>
					<dim>384</dim>
					<dim>1</dim>
					<dim>1</dim>
				</port>
				<port id="4">
					<dim>1</dim>
					<dim>384</dim>
					<dim>1</dim>
					<dim>1</dim>
				</port>
			</input>
			<output>
				<port id="5" precision="FP16">
					<dim>1</dim>
					<dim>384</dim>
					<dim>16</dim>
					<dim>16</dim>
				</port>
			</output>
		</layer>
		<layer id="412" name="422/fq_weights_1/Convert_to_float/Cast_05872_const" type="Const" version="opset1">
			<data element_type="u8" offset="118147" shape="384,1,3,3" size="3456"/>
			<output>
				<port id="1" precision="U8">
					<dim>384</dim>
					<dim>1</dim>
					<dim>3</dim>
					<dim>3</dim>
				</port>
			</output>
		</layer>
		<layer id="413" name="422/fq_weights_1/Convert_to_float" type="Convert" version="opset1">
			<data destination_type="f16"/>
			<input>
				<port id="0">
					<dim>384</dim>
					<dim>1</dim>
					<dim>3</dim>
					<dim>3</dim>
				</port>
			</input>
			<output>
				<port id="1" precision="FP16">
					<dim>384</dim>
					<dim>1</dim>
					<dim>3</dim>
					<dim>3</dim>
				</port>
			</output>
		</layer>
		<layer id="414" name="422/fq_weights_1/Copy/out_low4749_const" type="Const" version="opset1">
			<data element_type="f16" offset="0" shape="1" size="2"/>
			<output>
				<port id="1" precision="FP16">
					<dim>1</dim>
				</port>
			</output>
		</layer>
		<layer id="415" name="422/fq_weights_1/Copy/out_high4750_const" type="Const" version="opset1">
			<data element_type="f16" offset="5" shape="1" size="2"/>
			<output>
				<port id="1" precision="FP16">
					<dim>1</dim>
				</port>
			</output>
		</layer>
		<layer id="416" name="24102414_const" type="Const" version="opset1">
			<data element_type="f16" offset="121603" shape="384,1,1,1" size="768"/>
			<output>
				<port id="1" precision="FP16">
					<dim>384</dim>
					<dim>1</dim>
					<dim>1</dim>
					<dim>1</dim>
				</port>
			</output>
		</layer>
		<layer id="417" name="24112415_const" type="Const" version="opset1">
			<data element_type="f16" offset="122371" shape="384,1,1,1" size="768"/>
			<output>
				<port id="1" precision="FP16">
					<dim>384</dim>
					<dim>1</dim>
					<dim>1</dim>
					<dim>1</dim>
				</port>
			</output>
		</layer>
		<layer id="418" name="422/fq_weights_1" type="FakeQuantize" version="opset1">
			<data levels="255"/>
			<input>
				<port id="0">
					<dim>384</dim>
					<dim>1</dim>
					<dim>3</dim>
					<dim>3</dim>
				</port>
				<port id="1">
					<dim>1</dim>
				</port>
				<port id="2">
					<dim>1</dim>
				</port>
				<port id="3">
					<dim>384</dim>
					<dim>1</dim>
					<dim>1</dim>
					<dim>1</dim>
				</port>
				<port id="4">
					<dim>384</dim>
					<dim>1</dim>
					<dim>1</dim>
					<dim>1</dim>
				</port>
			</input>
			<output>
				<port id="5" precision="FP16">
					<dim>384</dim>
					<dim>1</dim>
					<dim>3</dim>
					<dim>3</dim>
				</port>
			</output>
		</layer>
		<layer id="419" name="6674/value6676_const" type="Const" version="opset1">
			<data element_type="i64" offset="123139" shape="5" size="40"/>
			<output>
				<port id="1" precision="I64">
					<dim>5</dim>
				</port>
			</output>
		</layer>
		<layer id="420" name="6674" type="Reshape" version="opset1">
			<data special_zero="True"/>
			<input>
				<port id="0">
…
		<edge from-layer="462" from-port="1" to-layer="466" to-port="1"/>
		<edge from-layer="463" from-port="1" to-layer="466" to-port="2"/>
		<edge from-layer="464" from-port="1" to-layer="466" to-port="3"/>
		<edge from-layer="465" from-port="1" to-layer="466" to-port="4"/>
		<edge from-layer="467" from-port="1" to-layer="468" to-port="0"/>
		<edge from-layer="468" from-port="1" to-layer="473" to-port="0"/>
		<edge from-layer="469" from-port="1" to-layer="473" to-port="1"/>
		<edge from-layer="470" from-port="1" to-layer="473" to-port="2"/>
		<edge from-layer="471" from-port="1" to-layer="473" to-port="3"/>
		<edge from-layer="472" from-port="1" to-layer="473" to-port="4"/>
		<edge from-layer="473" from-port="5" to-layer="475" to-port="0"/>
		<edge from-layer="474" from-port="1" to-layer="475" to-port="1"/>
		<edge from-layer="466" from-port="5" to-layer="476" to-port="0"/>
		<edge from-layer="475" from-port="2" to-layer="476" to-port="1"/>
		<edge from-layer="476" from-port="2" to-layer="478" to-port="0"/>
		<edge from-layer="477" from-port="1" to-layer="478" to-port="1"/>
		<edge from-layer="478" from-port="2" to-layer="479" to-port="0"/>
		<edge from-layer="479" from-port="1" to-layer="484" to-port="0"/>
		<edge from-layer="480" from-port="1" to-layer="484" to-port="1"/>
		<edge from-layer="481" from-port="1" to-layer="484" to-port="2"/>
		<edge from-layer="482" from-port="1" to-layer="484" to-port="3"/>
		<edge from-layer="483" from-port="1" to-layer="484" to-port="4"/>
		<edge from-layer="485" from-port="1" to-layer="486" to-port="0"/>
		<edge from-layer="486" from-port="1" to-layer="491" to-port="0"/>
		<edge from-layer="487" from-port="1" to-layer="491" to-port="1"/>
		<edge from-layer="488" from-port="1" to-layer="491" to-port="2"/>
		<edge from-layer="489" from-port="1" to-layer="491" to-port="3"/>
		<edge from-layer="490" from-port="1" to-layer="491" to-port="4"/>
		<edge from-layer="484" from-port="5" to-layer="492" to-port="0"/>
		<edge from-layer="491" from-port="5" to-layer="492" to-port="1"/>
		<edge from-layer="492" from-port="2" to-layer="494" to-port="0"/>
		<edge from-layer="493" from-port="1" to-layer="494" to-port="1"/>
		<edge from-layer="494" from-port="2" to-layer="499" to-port="0"/>
		<edge from-layer="495" from-port="1" to-layer="499" to-port="1"/>
		<edge from-layer="496" from-port="1" to-layer="499" to-port="2"/>
		<edge from-layer="497" from-port="1" to-layer="499" to-port="3"/>
		<edge from-layer="498" from-port="1" to-layer="499" to-port="4"/>
		<edge from-layer="499" from-port="5" to-layer="500" to-port="0"/>
		<edge from-layer="450" from-port="5" to-layer="500" to-port="1"/>
		<edge from-layer="500" from-port="2" to-layer="505" to-port="0"/>
		<edge from-layer="501" from-port="1" to-layer="505" to-port="1"/>
		<edge from-layer="502" from-port="1" to-layer="505" to-port="2"/>
		<edge from-layer="503" from-port="1" to-layer="505" to-port="3"/>
		<edge from-layer="504" from-port="1" to-layer="505" to-port="4"/>
		<edge from-layer="506" from-port="1" to-layer="507" to-port="0"/>
		<edge from-layer="507" from-port="1" to-layer="512" to-port="0"/>
		<edge from-layer="508" from-port="1" to-layer="512" to-port="1"/>
		<edge from-layer="509" from-port="1" to-layer="512" to-port="2"/>
		<edge from-layer="510" from-port="1" to-layer="512" to-port="3"/>
		<edge from-layer="511" from-port="1" to-layer="512" to-port="4"/>
		<edge from-layer="505" from-port="5" to-layer="513" to-port="0"/>
		<edge from-layer="512" from-port="5" to-layer="513" to-port="1"/>
		<edge from-layer="513" from-port="2" to-layer="515" to-port="0"/>
		<edge from-layer="514" from-port="1" to-layer="515" to-port="1"/>
		<edge from-layer="515" from-port="2" to-layer="516" to-port="0"/>
		<edge from-layer="516" from-port="1" to-layer="521" to-port="0"/>
		<edge from-layer="517" from-port="1" to-layer="521" to-port="1"/>
		<edge from-layer="518" from-port="1" to-layer="521" to-port="2"/>
		<edge from-layer="519" from-port="1" to-layer="521" to-port="3"/>
		<edge from-layer="520" from-port="1" to-layer="521" to-port="4"/>
		<edge from-layer="522" from-port="1" to-layer="523" to-port="0"/>
		<edge from-layer="523" from-port="1" to-layer="528" to-port="0"/>
		<edge from-layer="524" from-port="1" to-layer="528" to-port="1"/>
		<edge from-layer="525" from-port="1" to-layer="528" to-port="2"/>
		<edge from-layer="526" from-port="1" to-layer="528" to-port="3"/>
		<edge from-layer="527" from-port="1" to-layer="528" to-port="4"/>
		<edge from-layer="528" from-port="5" to-layer="530" to-port="0"/>
		<edge from-layer="529" from-port="1" to-layer="530" to-port="1"/>
		<edge from-layer="521" from-port="5" to-layer="531" to-port="0"/>
		<edge from-layer="530" from-port="2" to-layer="531" to-port="1"/>
		<edge from-layer="531" from-port="2" to-layer="533" to-port="0"/>
		<edge from-layer="532" from-port="1" to-layer="533" to-port="1"/>
		<edge from-layer="533" from-port="2" to-layer="534" to-port="0"/>
		<edge from-layer="534" from-port="1" to-layer="539" to-port="0"/>
		<edge from-layer="535" from-port="1" to-layer="539" to-port="1"/>
		<edge from-layer="536" from-port="1" to-layer="539" to-port="2"/>
		<edge from-layer="537" from-port="1" to-layer="539" to-port="3"/>
		<edge from-layer="538" from-port="1" to-layer="539" to-port="4"/>
		<edge from-layer="540" from-port="1" to-layer="541" to-port="0"/>
		<edge from-layer="541" from-port="1" to-layer="546" to-port="0"/>
		<edge from-layer="542" from-port="1" to-layer="546" to-port="1"/>
		<edge from-layer="543" from-port="1" to-layer="546" to-port="2"/>
		<edge from-layer="544" from-port="1" to-layer="546" to-port="3"/>
		<edge from-layer="545" from-port="1" to-layer="546" to-port="4"/>
		<edge from-layer="539" from-port="5" to-layer="547" to-port="0"/>
		<edge from-layer="546" from-port="5" to-layer="547" to-port="1"/>
		<edge from-layer="547" from-port="2" to-layer="549" to-port="0"/>
		<edge from-layer="548" from-port="1" to-layer="549" to-port="1"/>
		<edge from-layer="549" from-port="2" to-layer="554" to-port="0"/>
		<edge from-layer="550" from-port="1" to-layer="554" to-port="1"/>
		<edge from-layer="551" from-port="1" to-layer="554" to-port="2"/>
		<edge from-layer="552" from-port="1" to-layer="554" to-port="3"/>
		<edge from-layer="553" from-port="1" to-layer="554" to-port="4"/>
		<edge from-layer="554" from-port="5" to-layer="555" to-port="0"/>
		<edge from-layer="505" from-port="5" to-layer="555" to-port="1"/>
		<edge from-layer="555" from-port="2" to-layer="560" to-port="0"/>
		<edge from-layer="556" from-port="1" to-layer="560" to-port="1"/>
		<edge from-layer="557" from-port="1" to-layer="560" to-port="2"/>
		<edge from-layer="558" from-port="1" to-layer="560" to-port="3"/>
		<edge from-layer="559" from-port="1" to-layer="560" to-port="4"/>
		<edge from-layer="561" from-port="1" to-layer="562" to-port="0"/>
		<edge from-layer="562" from-port="1" to-layer="567" to-port="0"/>
		<edge from-layer="563" from-port="1" to-layer="567" to-port="1"/>
		<edge from-layer="564" from-port="1" to-layer="567" to-port="2"/>
		<edge from-layer="565" from-port="1" to-layer="567" to-port="3"/>
		<edge from-layer="566" from-port="1" to-layer="567" to-port="4"/>
		<edge from-layer="560" from-port="5" to-layer="568" to-port="0"/>
		<edge from-layer="567" from-port="5" to-layer="568" to-port="1"/>
		<edge from-layer="568" from-port="2" to-layer="570" to-port="0"/>
		<edge from-layer="569" from-port="1" to-layer="570" to-port="1"/>
		<edge from-layer="570" from-port="2" to-layer="571" to-port="0"/>
		<edge from-layer="571" from-port="1" to-layer="576" to-port="0"/>
		<edge from-layer="572" from-port="1" to-layer="576" to-port="1"/>
		<edge from-layer="573" from-port="1" to-layer="576" to-port="2"/>
		<edge from-layer="574" from-port="1" to-layer="576" to-port="3"/>
		<edge from-layer="575" from-port="1" to-layer="576" to-port="4"/>
		<edge from-layer="577" from-port="1" to-layer="578" to-port="0"/>
		<edge from-layer="578" from-port="1" to-layer="583" to-port="0"/>
		<edge from-layer="579" from-port="1" to-layer="583" to-port="1"/>
		<edge from-layer="580" from-port="1" to-layer="583" to-port="2"/>
		<edge from-layer="581" from-port="1" to-layer="583" to-port="3"/>
		<edge from-layer="582" from-port="1" to-layer="583" to-port="4"/>
		<edge from-layer="583" from-port="5" to-layer="585" to-port="0"/>
		<edge from-layer="584" from-port="1" to-layer="585" to-port="1"/>
		<edge from-layer="576" from-port="5" to-layer="586" to-port="0"/>
		<edge from-layer="585" from-port="2" to-layer="586" to-port="1"/>
		<edge from-layer="586" from-port="2" to-layer="588" to-port="0"/>
		<edge from-layer="587" from-port="1" to-layer="588" to-port="1"/>
		<edge from-layer="588" from-port="2" to-layer="589" to-port="0"/>
		<edge from-layer="589" from-port="1" to-layer="594" to-port="0"/>
		<edge from-layer="590" from-port="1" to-layer="594" to-port="1"/>
		<edge from-layer="591" from-port="1" to-layer="594" to-port="2"/>
		<edge from-layer="592" from-port="1" to-layer="594" to-port="3"/>
		<edge from-layer="593" from-port="1" to-layer="594" to-port="4"/>
		<edge from-layer="595" from-port="1" to-layer="596" to-port="0"/>
		<edge from-layer="596" from-port="1" to-layer="601" to-port="0"/>
		<edge from-layer="597" from-port="1" to-layer="601" to-port="1"/>
		<edge from-layer="598" from-port="1" to-layer="601" to-port="2"/>
		<edge from-layer="599" from-port="1" to-layer="601" to-port="3"/>
		<edge from-layer="600" from-port="1" to-layer="601" to-port="4"/>
		<edge from-layer="594" from-port="5" to-layer="602" to-port="0"/>
		<edge from-layer="601" from-port="5" to-layer="602" to-port="1"/>
		<edge from-layer="602" from-port="2" to-layer="604" to-port="0"/>
		<edge from-layer="603" from-port="1" to-layer="604" to-port="1"/>
		<edge from-layer="604" from-port="2" to-layer="609" to-port="0"/>
		<edge from-layer="605" from-port="1" to-layer="609" to-port="1"/>
		<edge from-layer="606" from-port="1" to-layer="609" to-port="2"/>
		<edge from-layer="607" from-port="1" to-layer="609" to-port="3"/>
		<edge from-layer="608" from-port="1" to-layer="609" to-port="4"/>
		<edge from-layer="610" from-port="1" to-layer="611" to-port="0"/>
		<edge from-layer="611" from-port="1" to-layer="616" to-port="0"/>
		<edge from-layer="612" from-port="1" to-layer="616" to-port="1"/>
		<edge from-layer="613" from-port="1" to-layer="616" to-port="2"/>
		<edge from-layer="614" from-port="1" to-layer="616" to-port="3"/>
		<edge from-layer="615" from-port="1" to-layer="616" to-port="4"/>
		<edge from-layer="609" from-port="5" to-layer="617" to-port="0"/>
		<edge from-layer="616" from-port="5" to-layer="617" to-port="1"/>
		<edge from-layer="617" from-port="2" to-layer="619" to-port="0"/>
		<edge from-layer="618" from-port="1" to-layer="619" to-port="1"/>
		<edge from-layer="619" from-port="2" to-layer="620" to-port="0"/>
		<edge from-layer="620" from-port="1" to-layer="625" to-port="0"/>
		<edge from-layer="621" from-port="1" to-layer="625" to-port="1"/>
		<edge from-layer="622" from-port="1" to-layer="625" to-port="2"/>
		<edge from-layer="623" from-port="1" to-layer="625" to-port="3"/>
		<edge from-layer="624" from-port="1" to-layer="625" to-port="4"/>
		<edge from-layer="626" from-port="1" to-layer="627" to-port="0"/>
		<edge from-layer="627" from-port="1" to-layer="632" to-port="0"/>
		<edge from-layer="628" from-port="1" to-layer="632" to-port="1"/>
		<edge from-layer="629" from-port="1" to-layer="632" to-port="2"/>
		<edge from-layer="630" from-port="1" to-layer="632" to-port="3"/>
		<edge from-layer="631" from-port="1" to-layer="632" to-port="4"/>
		<edge from-layer="632" from-port="5" to-layer="634" to-port="0"/>
		<edge from-layer="633" from-port="1" to-layer="634" to-port="1"/>
		<edge from-layer="625" from-port="5" to-layer="635" to-port="0"/>
		<edge from-layer="634" from-port="2" to-layer="635" to-port="1"/>
		<edge from-layer="635" from-port="2" to-layer="637" to-port="0"/>
		<edge from-layer="636" from-port="1" to-layer="637" to-port="1"/>
		<edge from-layer="637" from-port="2" to-layer="638" to-port="0"/>
		<edge from-layer="638" from-port="1" to-layer="643" to-port="0"/>
		<edge from-layer="639" from-port="1" to-layer="643" to-port="1"/>
		<edge from-layer="640" from-port="1" to-layer="643" to-port="2"/>
		<edge from-layer="641" from-port="1" to-layer="643" to-port="3"/>
		<edge from-layer="642" from-port="1" to-layer="643" to-port="4"/>
		<edge from-layer="644" from-port="1" to-layer="645" to-port="0"/>
		<edge from-layer="645" from-port="1" to-layer="650" to-port="0"/>
		<edge from-layer="646" from-port="1" to-layer="650" to-port="1"/>
		<edge from-layer="647" from-port="1" to-layer="650" to-port="2"/>
		<edge from-layer="648" from-port="1" to-layer="650" to-port="3"/>
		<edge from-layer="649" from-port="1" to-layer="650" to-port="4"/>
		<edge from-layer="643" from-port="5" to-layer="651" to-port="0"/>
		<edge from-layer="650" from-port="5" to-layer="651" to-port="1"/>
		<edge from-layer="651" from-port="2" to-layer="653" to-port="0"/>
		<edge from-layer="652" from-port="1" to-layer="653" to-port="1"/>
		<edge from-layer="653" from-port="2" to-layer="658" to-port="0"/>
		<edge from-layer="654" from-port="1" to-layer="658" to-port="1"/>
		<edge from-layer="655" from-port="1" to-layer="658" to-port="2"/>
		<edge from-layer="656" from-port="1" to-layer="658" to-port="3"/>
		<edge from-layer="657" from-port="1" to-layer="658" to-port="4"/>
		<edge from-layer="658" from-port="5" to-layer="659" to-port="0"/>
		<edge from-layer="609" from-port="5" to-layer="659" to-port="1"/>
		<edge from-layer="659" from-port="2" to-layer="664" to-port="0"/>
		<edge from-layer="660" from-port="1" to-layer="664" to-port="1"/>
		<edge from-layer="661" from-port="1" to-layer="664" to-port="2"/>
		<edge from-layer="662" from-port="1" to-layer="664" to-port="3"/>
		<edge from-layer="663" from-port="1" to-layer="664" to-port="4"/>
		<edge from-layer="665" from-port="1" to-layer="666" to-port="0"/>
		<edge from-layer="666" from-port="1" to-layer="671" to-port="0"/>
		<edge from-layer="667" from-port="1" to-layer="671" to-port="1"/>
		<edge from-layer="668" from-port="1" to-layer="671" to-port="2"/>
		<edge from-layer="669" from-port="1" to-layer="671" to-port="3"/>
		<edge from-layer="670" from-port="1" to-layer="671" to-port="4"/>
		<edge from-layer="664" from-port="5" to-layer="672" to-port="0"/>
		<edge from-layer="671" from-port="5" to-layer="672" to-port="1"/>
		<edge from-layer="672" from-port="2" to-layer="674" to-port="0"/>
		<edge from-layer="673" from-port="1" to-layer="674" to-port="1"/>
		<edge from-layer="674" from-port="2" to-layer="675" to-port="0"/>
		<edge from-layer="675" from-port="1" to-layer="680" to-port="0"/>
		<edge from-layer="676" from-port="1" to-layer="680" to-port="1"/>
		<edge from-layer="677" from-port="1" to-layer="680" to-port="2"/>
		<edge from-layer="678" from-port="1" to-layer="680" to-port="3"/>
		<edge from-layer="679" from-port="1" to-layer="680" to-port="4"/>
		<edge from-layer="681" from-port="1" to-layer="682" to-port="0"/>
		<edge from-layer="682" from-port="1" to-layer="687" to-port="0"/>
		<edge from-layer="683" from-port="1" to-layer="687" to-port="1"/>
		<edge from-layer="684" from-port="1" to-layer="687" to-port="2"/>
		<edge from-layer="685" from-port="1" to-layer="687" to-port="3"/>
		<edge from-layer="686" from-port="1" to-layer="687" to-port="4"/>
		<edge from-layer="687" from-port="5" to-layer="689" to-port="0"/>
		<edge from-layer="688" from-port="1" to-layer="689" to-port="1"/>
		<edge from-layer="680" from-port="5" to-layer="690" to-port="0"/>
		<edge from-layer="689" from-port="2" to-layer="690" to-port="1"/>
		<edge from-layer="690" from-port="2" to-layer="692" to-port="0"/>
		<edge from-layer="691" from-port="1" to-layer="692" to-port="1"/>
		<edge from-layer="692" from-port="2" to-layer="693" to-port="0"/>
		<edge from-layer="693" from-port="1" to-layer="698" to-port="0"/>
		<edge from-layer="694" from-port="1" to-layer="698" to-port="1"/>
		<edge from-layer="695" from-port="1" to-layer="698" to-port="2"/>
		<edge from-layer="696" from-port="1" to-layer="698" to-port="3"/>
		<edge from-layer="697" from-port="1" to-layer="698" to-port="4"/>
		<edge from-layer="699" from-port="1" to-layer="700" to-port="0"/>
		<edge from-layer="700" from-port="1" to-layer="705" to-port="0"/>
		<edge from-layer="701" from-port="1" to-layer="705" to-port="1"/>
		<edge from-layer="702" from-port="1" to-layer="705" to-port="2"/>
		<edge from-layer="703" from-port="1" to-layer="705" to-port="3"/>
		<edge from-layer="704" from-port="1" to-layer="705" to-port="4"/>
		<edge from-layer="698" from-port="5" to-layer="706" to-port="0"/>
		<edge from-layer="705" from-port="5" to-layer="706" to-port="1"/>
		<edge from-layer="706" from-port="2" to-layer="708" to-port="0"/>
		<edge from-layer="707" from-port="1" to-layer="708" to-port="1"/>
		<edge from-layer="708" from-port="2" to-layer="713" to-port="0"/>
		<edge from-layer="709" from-port="1" to-layer="713" to-port="1"/>
		<edge from-layer="710" from-port="1" to-layer="713" to-port="2"/>
		<edge from-layer="711" from-port="1" to-layer="713" to-port="3"/>
		<edge from-layer="712" from-port="1" to-layer="713" to-port="4"/>
		<edge from-layer="713" from-port="5" to-layer="714" to-port="0"/>
		<edge from-layer="664" from-port="5" to-layer="714" to-port="1"/>
		<edge from-layer="714" from-port="2" to-layer="719" to-port="0"/>
		<edge from-layer="715" from-port="1" to-layer="719" to-port="1"/>
		<edge from-layer="716" from-port="1" to-layer="719" to-port="2"/>
		<edge from-layer="717" from-port="1" to-layer="719" to-port="3"/>
		<edge from-layer="718" from-port="1" to-layer="719" to-port="4"/>
		<edge from-layer="720" from-port="1" to-layer="721" to-port="0"/>
		<edge from-layer="721" from-port="1" to-layer="726" to-port="0"/>
		<edge from-layer="722" from-port="1" to-layer="726" to-port="1"/>
		<edge from-layer="723" from-port="1" to-layer="726" to-port="2"/>
		<edge from-layer="724" from-port="1" to-layer="726" to-port="3"/>
		<edge from-layer="725" from-port="1" to-layer="726" to-port="4"/>
		<edge from-layer="726" from-port="5" to-layer="728" to-port="0"/>
		<edge from-layer="727" from-port="1" to-layer="728" to-port="1"/>
		<edge from-layer="719" from-port="5" to-layer="729" to-port="0"/>
		<edge from-layer="728" from-port="2" to-layer="729" to-port="1"/>
		<edge from-layer="729" from-port="2" to-layer="731" to-port="0"/>
		<edge from-layer="730" from-port="1" to-layer="731" to-port="1"/>
		<edge from-layer="731" from-port="2" to-layer="732" to-port="0"/>
		<edge from-layer="732" from-port="1" to-layer="737" to-port="0"/>
		<edge from-layer="733" from-port="1" to-layer="737" to-port="1"/>
		<edge from-layer="734" from-port="1" to-layer="737" to-port="2"/>
		<edge from-layer="735" from-port="1" to-layer="737" to-port="3"/>
		<edge from-layer="736" from-port="1" to-layer="737" to-port="4"/>
		<edge from-layer="738" from-port="1" to-layer="739" to-port="0"/>
		<edge from-layer="739" from-port="1" to-layer="744" to-port="0"/>
		<edge from-layer="740" from-port="1" to-layer="744" to-port="1"/>
		<edge from-layer="741" from-port="1" to-layer="744" to-port="2"/>
		<edge from-layer="742" from-port="1" to-layer="744" to-port="3"/>
		<edge from-layer="743" from-port="1" to-layer="744" to-port="4"/>
		<edge from-layer="737" from-port="5" to-layer="745" to-port="0"/>
		<edge from-layer="744" from-port="5" to-layer="745" to-port="1"/>
		<edge from-layer="745" from-port="2" to-layer="747" to-port="0"/>
		<edge from-layer="746" from-port="1" to-layer="747" to-port="1"/>
		<edge from-layer="747" from-port="2" to-layer="749" to-port="0"/>
		<edge from-layer="748" from-port="1" to-layer="749" to-port="1"/>
		<edge from-layer="749" from-port="2" to-layer="751" to-port="0"/>
		<edge from-layer="750" from-port="1" to-layer="751" to-port="1"/>
		<edge from-layer="752" from-port="1" to-layer="753" to-port="0"/>
		<edge from-layer="753" from-port="1" to-layer="758" to-port="0"/>
		<edge from-layer="754" from-port="1" to-layer="758" to-port="1"/>
		<edge from-layer="755" from-port="1" to-layer="758" to-port="2"/>
		<edge from-layer="756" from-port="1" to-layer="758" to-port="3"/>
		<edge from-layer="757" from-port="1" to-layer="758" to-port="4"/>
		<edge from-layer="719" from-port="5" to-layer="759" to-port="0"/>
		<edge from-layer="758" from-port="5" to-layer="759" to-port="1"/>
		<edge from-layer="759" from-port="2" to-layer="761" to-port="0"/>
		<edge from-layer="760" from-port="1" to-layer="761" to-port="1"/>
		<edge from-layer="761" from-port="2" to-layer="762" to-port="0"/>
		<edge from-layer="762" from-port="1" to-layer="767" to-port="0"/>
		<edge from-layer="763" from-port="1" to-layer="767" to-port="1"/>
		<edge from-layer="764" from-port="1" to-layer="767" to-port="2"/>
		<edge from-layer="765" from-port="1" to-layer="767" to-port="3"/>
		<edge from-layer="766" from-port="1" to-layer="767" to-port="4"/>
		<edge from-layer="768" from-port="1" to-layer="769" to-port="0"/>
		<edge from-layer="769" from-port="1" to-layer="774" to-port="0"/>
		<edge from-layer="770" from-port="1" to-layer="774" to-port="1"/>
		<edge from-layer="771" from-port="1" to-layer="774" to-port="2"/>
		<edge from-layer="772" from-port="1" to-layer="774" to-port="3"/>
		<edge from-layer="773" from-port="1" to-layer="774" to-port="4"/>
		<edge from-layer="774" from-port="5" to-layer="776" to-port="0"/>
		<edge from-layer="775" from-port="1" to-layer="776" to-port="1"/>
		<edge from-layer="767" from-port="5" to-layer="777" to-port="0"/>
		<edge from-layer="776" from-port="2" to-layer="777" to-port="1"/>
		<edge from-layer="777" from-port="2" to-layer="779" to-port="0"/>
		<edge from-layer="778" from-port="1" to-layer="779" to-port="1"/>
		<edge from-layer="779" from-port="2" to-layer="780" to-port="0"/>
		<edge from-layer="780" from-port="1" to-layer="785" to-port="0"/>
		<edge from-layer="781" from-port="1" to-layer="785" to-port="1"/>
		<edge from-layer="782" from-port="1" to-layer="785" to-port="2"/>
		<edge from-layer="783" from-port="1" to-layer="785" to-port="3"/>
		<edge from-layer="784" from-port="1" to-layer="785" to-port="4"/>
		<edge from-layer="786" from-port="1" to-layer="787" to-port="0"/>
		<edge from-layer="787" from-port="1" to-layer="792" to-port="0"/>
		<edge from-layer="788" from-port="1" to-layer="792" to-port="1"/>
		<edge from-layer="789" from-port="1" to-layer="792" to-port="2"/>
		<edge from-layer="790" from-port="1" to-layer="792" to-port="3"/>
		<edge from-layer="791" from-port="1" to-layer="792" to-port="4"/>
		<edge from-layer="785" from-port="5" to-layer="793" to-port="0"/>
		<edge from-layer="792" from-port="5" to-layer="793" to-port="1"/>
		<edge from-layer="793" from-port="2" to-layer="795" to-port="0"/>
		<edge from-layer="794" from-port="1" to-layer="795" to-port="1"/>
		<edge from-layer="795" from-port="2" to-layer="800" to-port="0"/>
		<edge from-layer="796" from-port="1" to-layer="800" to-port="1"/>
		<edge from-layer="797" from-port="1" to-layer="800" to-port="2"/>
		<edge from-layer="798" from-port="1" to-layer="800" to-port="3"/>
		<edge from-layer="799" from-port="1" to-layer="800" to-port="4"/>
		<edge from-layer="801" from-port="1" to-layer="802" to-port="0"/>
		<edge from-layer="802" from-port="1" to-layer="807" to-port="0"/>
		<edge from-layer="803" from-port="1" to-layer="807" to-port="1"/>
		<edge from-layer="804" from-port="1" to-layer="807" to-port="2"/>
		<edge from-layer="805" from-port="1" to-layer="807" to-port="3"/>
		<edge from-layer="806" from-port="1" to-layer="807" to-port="4"/>
		<edge from-layer="800" from-port="5" to-layer="808" to-port="0"/>
		<edge from-layer="807" from-port="5" to-layer="808" to-port="1"/>
		<edge from-layer="808" from-port="2" to-layer="810" to-port="0"/>
		<edge from-layer="809" from-port="1" to-layer="810" to-port="1"/>
		<edge from-layer="810" from-port="2" to-layer="811" to-port="0"/>
		<edge from-layer="811" from-port="1" to-layer="816" to-port="0"/>
		<edge from-layer="812" from-port="1" to-layer="816" to-port="1"/>
		<edge from-layer="813" from-port="1" to-layer="816" to-port="2"/>
		<edge from-layer="814" from-port="1" to-layer="816" to-port="3"/>
		<edge from-layer="815" from-port="1" to-layer="816" to-port="4"/>
		<edge from-layer="817" from-port="1" to-layer="818" to-port="0"/>
		<edge from-layer="818" from-port="1" to-layer="823" to-port="0"/>
		<edge from-layer="819" from-port="1" to-layer="823" to-port="1"/>
		<edge from-layer="820" from-port="1" to-layer="823" to-port="2"/>
		<edge from-layer="821" from-port="1" to-layer="823" to-port="3"/>
		<edge from-layer="822" from-port="1" to-layer="823" to-port="4"/>
		<edge from-layer="823" from-port="5" to-layer="825" to-port="0"/>
		<edge from-layer="824" from-port="1" to-layer="825" to-port="1"/>
		<edge from-layer="816" from-port="5" to-layer="826" to-port="0"/>
		<edge from-layer="825" from-port="2" to-layer="826" to-port="1"/>
		<edge from-layer="826" from-port="2" to-layer="828" to-port="0"/>
		<edge from-layer="827" from-port="1" to-layer="828" to-port="1"/>
		<edge from-layer="828" from-port="2" to-layer="829" to-port="0"/>
		<edge from-layer="829" from-port="1" to-layer="834" to-port="0"/>
		<edge from-layer="830" from-port="1" to-layer="834" to-port="1"/>
		<edge from-layer="831" from-port="1" to-layer="834" to-port="2"/>
		<edge from-layer="832" from-port="1" to-layer="834" to-port="3"/>
		<edge from-layer="833" from-port="1" to-layer="834" to-port="4"/>
		<edge from-layer="835" from-port="1" to-layer="836" to-port="0"/>
		<edge from-layer="836" from-port="1" to-layer="841" to-port="0"/>
		<edge from-layer="837" from-port="1" to-layer="841" to-port="1"/>
		<edge from-layer="838" from-port="1" to-layer="841" to-port="2"/>
		<edge from-layer="839" from-port="1" to-layer="841" to-port="3"/>
		<edge from-layer="840" from-port="1" to-layer="841" to-port="4"/>
		<edge from-layer="834" from-port="5" to-layer="842" to-port="0"/>
		<edge from-layer="841" from-port="5" to-layer="842" to-port="1"/>
		<edge from-layer="842" from-port="2" to-layer="844" to-port="0"/>
		<edge from-layer="843" from-port="1" to-layer="844" to-port="1"/>
		<edge from-layer="844" from-port="2" to-layer="849" to-port="0"/>
		<edge from-layer="845" from-port="1" to-layer="849" to-port="1"/>
		<edge from-layer="846" from-port="1" to-layer="849" to-port="2"/>
		<edge from-layer="847" from-port="1" to-layer="849" to-port="3"/>
		<edge from-layer="848" from-port="1" to-layer="849" to-port="4"/>
		<edge from-layer="849" from-port="5" to-layer="850" to-port="0"/>
		<edge from-layer="800" from-port="5" to-layer="850" to-port="1"/>
		<edge from-layer="850" from-port="2" to-layer="855" to-port="0"/>
		<edge from-layer="851" from-port="1" to-layer="855" to-port="1"/>
		<edge from-layer="852" from-port="1" to-layer="855" to-port="2"/>
		<edge from-layer="853" from-port="1" to-layer="855" to-port="3"/>
		<edge from-layer="854" from-port="1" to-layer="855" to-port="4"/>
		<edge from-layer="856" from-port="1" to-layer="857" to-port="0"/>
		<edge from-layer="857" from-port="1" to-layer="862" to-port="0"/>
		<edge from-layer="858" from-port="1" to-layer="862" to-port="1"/>
		<edge from-layer="859" from-port="1" to-layer="862" to-port="2"/>
		<edge from-layer="860" from-port="1" to-layer="862" to-port="3"/>
		<edge from-layer="861" from-port="1" to-layer="862" to-port="4"/>
		<edge from-layer="855" from-port="5" to-layer="863" to-port="0"/>
		<edge from-layer="862" from-port="5" to-layer="863" to-port="1"/>
		<edge from-layer="863" from-port="2" to-layer="865" to-port="0"/>
		<edge from-layer="864" from-port="1" to-layer="865" to-port="1"/>
		<edge from-layer="865" from-port="2" to-layer="866" to-port="0"/>
		<edge from-layer="866" from-port="1" to-layer="871" to-port="0"/>
		<edge from-layer="867" from-port="1" to-layer="871" to-port="1"/>
		<edge from-layer="868" from-port="1" to-layer="871" to-port="2"/>
		<edge from-layer="869" from-port="1" to-layer="871" to-port="3"/>
		<edge from-layer="870" from-port="1" to-layer="871" to-port="4"/>
		<edge from-layer="872" from-port="1" to-layer="873" to-port="0"/>
		<edge from-layer="873" from-port="1" to-layer="878" to-port="0"/>
		<edge from-layer="874" from-port="1" to-layer="878" to-port="1"/>
		<edge from-layer="875" from-port="1" to-layer="878" to-port="2"/>
		<edge from-layer="876" from-port="1" to-layer="878" to-port="3"/>
		<edge from-layer="877" from-port="1" to-layer="878" to-port="4"/>
		<edge from-layer="878" from-port="5" to-layer="880" to-port="0"/>
		<edge from-layer="879" from-port="1" to-layer="880" to-port="1"/>
		<edge from-layer="871" from-port="5" to-layer="881" to-port="0"/>
		<edge from-layer="880" from-port="2" to-layer="881" to-port="1"/>
		<edge from-layer="881" from-port="2" to-layer="883" to-port="0"/>
		<edge from-layer="882" from-port="1" to-layer="883" to-port="1"/>
		<edge from-layer="883" from-port="2" to-layer="884" to-port="0"/>
		<edge from-layer="884" from-port="1" to-layer="889" to-port="0"/>
		<edge from-layer="885" from-port="1" to-layer="889" to-port="1"/>
		<edge from-layer="886" from-port="1" to-layer="889" to-port="2"/>
		<edge from-layer="887" from-port="1" to-layer="889" to-port="3"/>
		<edge from-layer="888" from-port="1" to-layer="889" to-port="4"/>
		<edge from-layer="890" from-port="1" to-layer="891" to-port="0"/>
		<edge from-layer="891" from-port="1" to-layer="896" to-port="0"/>
		<edge from-layer="892" from-port="1" to-layer="896" to-port="1"/>
		<edge from-layer="893" from-port="1" to-layer="896" to-port="2"/>
		<edge from-layer="894" from-port="1" to-layer="896" to-port="3"/>
		<edge from-layer="895" from-port="1" to-layer="896" to-port="4"/>
		<edge from-layer="889" from-port="5" to-layer="897" to-port="0"/>
		<edge from-layer="896" from-port="5" to-layer="897" to-port="1"/>
		<edge from-layer="897" from-port="2" to-layer="899" to-port="0"/>
		<edge from-layer="898" from-port="1" to-layer="899" to-port="1"/>
		<edge from-layer="899" from-port="2" to-layer="904" to-port="0"/>
		<edge from-layer="900" from-port="1" to-layer="904" to-port="1"/>
		<edge from-layer="901" from-port="1" to-layer="904" to-port="2"/>
		<edge from-layer="902" from-port="1" to-layer="904" to-port="3"/>
		<edge from-layer="903" from-port="1" to-layer="904" to-port="4"/>
		<edge from-layer="904" from-port="5" to-layer="905" to-port="0"/>
		<edge from-layer="855" from-port="5" to-layer="905" to-port="1"/>
		<edge from-layer="905" from-port="2" to-layer="910" to-port="0"/>
		<edge from-layer="906" from-port="1" to-layer="910" to-port="1"/>
		<edge from-layer="907" from-port="1" to-layer="910" to-port="2"/>
		<edge from-layer="908" from-port="1" to-layer="910" to-port="3"/>
		<edge from-layer="909" from-port="1" to-layer="910" to-port="4"/>
		<edge from-layer="911" from-port="1" to-layer="912" to-port="0"/>
		<edge from-layer="912" from-port="1" to-layer="917" to-port="0"/>
		<edge from-layer="913" from-port="1" to-layer="917" to-port="1"/>
		<edge from-layer="914" from-port="1" to-layer="917" to-port="2"/>
		<edge from-layer="915" from-port="1" to-layer="917" to-port="3"/>
		<edge from-layer="916" from-port="1" to-layer="917" to-port="4"/>
		<edge from-layer="910" from-port="5" to-layer="918" to-port="0"/>
		<edge from-layer="917" from-port="5" to-layer="918" to-port="1"/>
		<edge from-layer="918" from-port="2" to-layer="920" to-port="0"/>
		<edge from-layer="919" from-port="1" to-layer="920" to-port="1"/>
		<edge from-layer="920" from-port="2" to-layer="921" to-port="0"/>
		<edge from-layer="921" from-port="1" to-layer="926" to-port="0"/>
		<edge from-layer="922" from-port="1" to-layer="926" to-port="1"/>
		<edge from-layer="923" from-port="1" to-layer="926" to-port="2"/>
		<edge from-layer="924" from-port="1" to-layer="926" to-port="3"/>
		<edge from-layer="925" from-port="1" to-layer="926" to-port="4"/>
		<edge from-layer="927" from-port="1" to-layer="928" to-port="0"/>
		<edge from-layer="928" from-port="1" to-layer="933" to-port="0"/>
		<edge from-layer="929" from-port="1" to-layer="933" to-port="1"/>
		<edge from-layer="930" from-port="1" to-layer="933" to-port="2"/>
		<edge from-layer="931" from-port="1" to-layer="933" to-port="3"/>
		<edge from-layer="932" from-port="1" to-layer="933" to-port="4"/>
		<edge from-layer="933" from-port="5" to-layer="935" to-port="0"/>
		<edge from-layer="934" from-port="1" to-layer="935" to-port="1"/>
		<edge from-layer="926" from-port="5" to-layer="936" to-port="0"/>
		<edge from-layer="935" from-port="2" to-layer="936" to-port="1"/>
		<edge from-layer="936" from-port="2" to-layer="938" to-port="0"/>
		<edge from-layer="937" from-port="1" to-layer="938" to-port="1"/>
		<edge from-layer="938" from-port="2" to-layer="939" to-port="0"/>
		<edge from-layer="939" from-port="1" to-layer="944" to-port="0"/>
		<edge from-layer="940" from-port="1" to-layer="944" to-port="1"/>
		<edge from-layer="941" from-port="1" to-layer="944" to-port="2"/>
		<edge from-layer="942" from-port="1" to-layer="944" to-port="3"/>
		<edge from-layer="943" from-port="1" to-layer="944" to-port="4"/>
		<edge from-layer="945" from-port="1" to-layer="946" to-port="0"/>
		<edge from-layer="946" from-port="1" to-layer="951" to-port="0"/>
		<edge from-layer="947" from-port="1" to-layer="951" to-port="1"/>
		<edge from-layer="948" from-port="1" to-layer="951" to-port="2"/>
		<edge from-layer="949" from-port="1" to-layer="951" to-port="3"/>
		<edge from-layer="950" from-port="1" to-layer="951" to-port="4"/>
		<edge from-layer="944" from-port="5" to-layer="952" to-port="0"/>
		<edge from-layer="951" from-port="5" to-layer="952" to-port="1"/>
		<edge from-layer="952" from-port="2" to-layer="954" to-port="0"/>
		<edge from-layer="953" from-port="1" to-layer="954" to-port="1"/>
		<edge from-layer="954" from-port="2" to-layer="959" to-port="0"/>
		<edge from-layer="955" from-port="1" to-layer="959" to-port="1"/>
		<edge from-layer="956" from-port="1" to-layer="959" to-port="2"/>
		<edge from-layer="957" from-port="1" to-layer="959" to-port="3"/>
		<edge from-layer="958" from-port="1" to-layer="959" to-port="4"/>
		<edge from-layer="960" from-port="1" to-layer="961" to-port="0"/>
		<edge from-layer="961" from-port="1" to-layer="966" to-port="0"/>
		<edge from-layer="962" from-port="1" to-layer="966" to-port="1"/>
		<edge from-layer="963" from-port="1" to-layer="966" to-port="2"/>
		<edge from-layer="964" from-port="1" to-layer="966" to-port="3"/>
		<edge from-layer="965" from-port="1" to-layer="966" to-port="4"/>
		<edge from-layer="966" from-port="5" to-layer="968" to-port="0"/>
		<edge from-layer="967" from-port="1" to-layer="968" to-port="1"/>
		<edge from-layer="959" from-port="5" to-layer="969" to-port="0"/>
		<edge from-layer="968" from-port="2" to-layer="969" to-port="1"/>
		<edge from-layer="969" from-port="2" to-layer="971" to-port="0"/>
		<edge from-layer="970" from-port="1" to-layer="971" to-port="1"/>
		<edge from-layer="971" from-port="2" to-layer="972" to-port="0"/>
		<edge from-layer="972" from-port="1" to-layer="977" to-port="0"/>
		<edge from-layer="973" from-port="1" to-layer="977" to-port="1"/>
		<edge from-layer="974" from-port="1" to-layer="977" to-port="2"/>
		<edge from-layer="975" from-port="1" to-layer="977" to-port="3"/>
		<edge from-layer="976" from-port="1" to-layer="977" to-port="4"/>
		<edge from-layer="978" from-port="1" to-layer="979" to-port="0"/>
		<edge from-layer="979" from-port="1" to-layer="984" to-port="0"/>
		<edge from-layer="980" from-port="1" to-layer="984" to-port="1"/>
		<edge from-layer="981" from-port="1" to-layer="984" to-port="2"/>
		<edge from-layer="982" from-port="1" to-layer="984" to-port="3"/>
		<edge from-layer="983" from-port="1" to-layer="984" to-port="4"/>
		<edge from-layer="977" from-port="5" to-layer="985" to-port="0"/>
		<edge from-layer="984" from-port="5" to-layer="985" to-port="1"/>
		<edge from-layer="985" from-port="2" to-layer="987" to-port="0"/>
		<edge from-layer="986" from-port="1" to-layer="987" to-port="1"/>
		<edge from-layer="987" from-port="2" to-layer="989" to-port="0"/>
		<edge from-layer="988" from-port="1" to-layer="989" to-port="1"/>
		<edge from-layer="989" from-port="2" to-layer="991" to-port="0"/>
		<edge from-layer="990" from-port="1" to-layer="991" to-port="1"/>
		<edge from-layer="751" from-port="2" to-layer="992" to-port="0"/>
		<edge from-layer="991" from-port="2" to-layer="992" to-port="1"/>
		<edge from-layer="993" from-port="1" to-layer="994" to-port="0"/>
		<edge from-layer="994" from-port="1" to-layer="999" to-port="0"/>
		<edge from-layer="995" from-port="1" to-layer="999" to-port="1"/>
		<edge from-layer="996" from-port="1" to-layer="999" to-port="2"/>
		<edge from-layer="997" from-port="1" to-layer="999" to-port="3"/>
		<edge from-layer="998" from-port="1" to-layer="999" to-port="4"/>
		<edge from-layer="999" from-port="5" to-layer="1001" to-port="0"/>
		<edge from-layer="1000" from-port="1" to-layer="1001" to-port="1"/>
		<edge from-layer="719" from-port="5" to-layer="1002" to-port="0"/>
		<edge from-layer="1001" from-port="2" to-layer="1002" to-port="1"/>
		<edge from-layer="1002" from-port="2" to-layer="1004" to-port="0"/>
		<edge from-layer="1003" from-port="1" to-layer="1004" to-port="1"/>
		<edge from-layer="1004" from-port="2" to-layer="1005" to-port="0"/>
		<edge from-layer="1005" from-port="1" to-layer="1010" to-port="0"/>
		<edge from-layer="1006" from-port="1" to-layer="1010" to-port="1"/>
		<edge from-layer="1007" from-port="1" to-layer="1010" to-port="2"/>
		<edge from-layer="1008" from-port="1" to-layer="1010" to-port="3"/>
		<edge from-layer="1009" from-port="1" to-layer="1010" to-port="4"/>
		<edge from-layer="1011" from-port="1" to-layer="1012" to-port="0"/>
		<edge from-layer="1012" from-port="1" to-layer="1017" to-port="0"/>
		<edge from-layer="1013" from-port="1" to-layer="1017" to-port="1"/>
		<edge from-layer="1014" from-port="1" to-layer="1017" to-port="2"/>
		<edge from-layer="1015" from-port="1" to-layer="1017" to-port="3"/>
		<edge from-layer="1016" from-port="1" to-layer="1017" to-port="4"/>
		<edge from-layer="1010" from-port="5" to-layer="1018" to-port="0"/>
		<edge from-layer="1017" from-port="5" to-layer="1018" to-port="1"/>
		<edge from-layer="1018" from-port="2" to-layer="1020" to-port="0"/>
		<edge from-layer="1019" from-port="1" to-layer="1020" to-port="1"/>
		<edge from-layer="1020" from-port="2" to-layer="1022" to-port="0"/>
		<edge from-layer="1021" from-port="1" to-layer="1022" to-port="1"/>
		<edge from-layer="1022" from-port="2" to-layer="1024" to-port="0"/>
		<edge from-layer="1023" from-port="1" to-layer="1024" to-port="1"/>
		<edge from-layer="1025" from-port="1" to-layer="1026" to-port="0"/>
		<edge from-layer="1026" from-port="1" to-layer="1031" to-port="0"/>
		<edge from-layer="1027" from-port="1" to-layer="1031" to-port="1"/>
		<edge from-layer="1028" from-port="1" to-layer="1031" to-port="2"/>
		<edge from-layer="1029" from-port="1" to-layer="1031" to-port="3"/>
		<edge from-layer="1030" from-port="1" to-layer="1031" to-port="4"/>
		<edge from-layer="1031" from-port="5" to-layer="1033" to-port="0"/>
		<edge from-layer="1032" from-port="1" to-layer="1033" to-port="1"/>
		<edge from-layer="959" from-port="5" to-layer="1034" to-port="0"/>
		<edge from-layer="1033" from-port="2" to-layer="1034" to-port="1"/>
		<edge from-layer="1034" from-port="2" to-layer="1036" to-port="0"/>
		<edge from-layer="1035" from-port="1" to-layer="1036" to-port="1"/>
		<edge from-layer="1036" from-port="2" to-layer="1037" to-port="0"/>
		<edge from-layer="1037" from-port="1" to-layer="1042" to-port="0"/>
		<edge from-layer="1038" from-port="1" to-layer="1042" to-port="1"/>
		<edge from-layer="1039" from-port="1" to-layer="1042" to-port="2"/>
		<edge from-layer="1040" from-port="1" to-layer="1042" to-port="3"/>
		<edge from-layer="1041" from-port="1" to-layer="1042" to-port="4"/>
		<edge from-layer="1043" from-port="1" to-layer="1044" to-port="0"/>
		<edge from-layer="1044" from-port="1" to-layer="1049" to-port="0"/>
		<edge from-layer="1045" from-port="1" to-layer="1049" to-port="1"/>
		<edge from-layer="1046" from-port="1" to-layer="1049" to-port="2"/>
		<edge from-layer="1047" from-port="1" to-layer="1049" to-port="3"/>
		<edge from-layer="1048" from-port="1" to-layer="1049" to-port="4"/>
		<edge from-layer="1042" from-port="5" to-layer="1050" to-port="0"/>
		<edge from-layer="1049" from-port="5" to-layer="1050" to-port="1"/>
		<edge from-layer="1050" from-port="2" to-layer="1052" to-port="0"/>
		<edge from-layer="1051" from-port="1" to-layer="1052" to-port="1"/>
		<edge from-layer="1052" from-port="2" to-layer="1054" to-port="0"/>
		<edge from-layer="1053" from-port="1" to-layer="1054" to-port="1"/>
		<edge from-layer="1054" from-port="2" to-layer="1056" to-port="0"/>
		<edge from-layer="1055" from-port="1" to-layer="1056" to-port="1"/>
		<edge from-layer="1024" from-port="2" to-layer="1057" to-port="0"/>
		<edge from-layer="1056" from-port="2" to-layer="1057" to-port="1"/>
		<edge from-layer="1057" from-port="2" to-layer="1059" to-port="0"/>
		<edge from-layer="1058" from-port="1" to-layer="1059" to-port="1"/>
		<edge from-layer="1059" from-port="2" to-layer="1061" to-port="0"/>
		<edge from-layer="1060" from-port="1" to-layer="1061" to-port="1"/>
		<edge from-layer="1061" from-port="2" to-layer="1062" to-port="0"/>
		<edge from-layer="1062" from-port="1" to-layer="1064" to-port="0"/>
		<edge from-layer="1063" from-port="1" to-layer="1064" to-port="1"/>
		<edge from-layer="1064" from-port="2" to-layer="1066" to-port="0"/>
		<edge from-layer="1065" from-port="1" to-layer="1066" to-port="1"/>
		<edge from-layer="714" from-port="2" to-layer="1067" to-port="0"/>
		<edge from-layer="1067" from-port="1" to-layer="1071" to-port="0"/>
		<edge from-layer="1068" from-port="1" to-layer="1071" to-port="1"/>
		<edge from-layer="1069" from-port="1" to-layer="1071" to-port="2"/>
		<edge from-layer="1070" from-port="1" to-layer="1071" to-port="3"/>
		<edge from-layer="13" from-port="2" to-layer="1072" to-port="0"/>
		<edge from-layer="1072" from-port="1" to-layer="1076" to-port="0"/>
		<edge from-layer="1073" from-port="1" to-layer="1076" to-port="1"/>
		<edge from-layer="1074" from-port="1" to-layer="1076" to-port="2"/>
		<edge from-layer="1075" from-port="1" to-layer="1076" to-port="3"/>
		<edge from-layer="1071" from-port="4" to-layer="1077" to-port="0"/>
		<edge from-layer="1076" from-port="4" to-layer="1077" to-port="1"/>
		<edge from-layer="1077" from-port="2" to-layer="1079" to-port="0"/>
		<edge from-layer="1078" from-port="1" to-layer="1079" to-port="1"/>
		<edge from-layer="954" from-port="2" to-layer="1080" to-port="0"/>
		<edge from-layer="1080" from-port="1" to-layer="1084" to-port="0"/>
		<edge from-layer="1081" from-port="1" to-layer="1084" to-port="1"/>
		<edge from-layer="1082" from-port="1" to-layer="1084" to-port="2"/>
		<edge from-layer="1083" from-port="1" to-layer="1084" to-port="3"/>
		<edge from-layer="13" from-port="2" to-layer="1085" to-port="0"/>
		<edge from-layer="1085" from-port="1" to-layer="1089" to-port="0"/>
		<edge from-layer="1086" from-port="1" to-layer="1089" to-port="1"/>
		<edge from-layer="1087" from-port="1" to-layer="1089" to-port="2"/>
		<edge from-layer="1088" from-port="1" to-layer="1089" to-port="3"/>
		<edge from-layer="1084" from-port="4" to-layer="1090" to-port="0"/>
		<edge from-layer="1089" from-port="4" to-layer="1090" to-port="1"/>
		<edge from-layer="1090" from-port="2" to-layer="1092" to-port="0"/>
		<edge from-layer="1091" from-port="1" to-layer="1092" to-port="1"/>
		<edge from-layer="1079" from-port="2" to-layer="1093" to-port="0"/>
		<edge from-layer="1092" from-port="2" to-layer="1093" to-port="1"/>
		<edge from-layer="992" from-port="2" to-layer="1094" to-port="0"/>
		<edge from-layer="1066" from-port="2" to-layer="1094" to-port="1"/>
		<edge from-layer="1093" from-port="2" to-layer="1094" to-port="2"/>
		<edge from-layer="1094" from-port="3" to-layer="1095" to-port="0"/>
	</edges>
	<meta_data>
		<MO_version value="unknown version"/>
		<cli_parameters>
			<blobs_as_inputs value="True"/>
			<caffe_parser_path value="DIR"/>
			<data_type value="FP16"/>
			<disable_nhwc_to_nchw value="False"/>
			<disable_omitting_optional value="False"/>
			<disable_resnet_optimization value="False"/>
			<disable_weights_compression value="False"/>
			<enable_concat_optimization value="False"/>
			<enable_flattening_nested_params value="False"/>
			<enable_ssd_gluoncv value="False"/>
			<extensions value="DIR"/>
			<framework value="onnx"/>
			<freeze_placeholder_with_value value="{}"/>
			<generate_deprecated_IR_V2 value="False"/>
			<generate_deprecated_IR_V7 value="False"/>
			<generate_experimental_IR_V10 value="True"/>
			<input value="image"/>
			<input_model value="DIR/model.onnx"/>
			<input_model_is_text value="False"/>
			<input_shape value="[1,3,256,256]"/>
			<k value="DIR/CustomLayersMapping.xml"/>
			<keep_quantize_ops_in_IR value="True"/>
			<keep_shape_ops value="True"/>
			<legacy_mxnet_model value="False"/>
			<log_level value="ERROR"/>
			<mean_scale_values value="{'image': {'mean': None, 'scale': array([255.])}}"/>
			<mean_values value="()"/>
			<model_name value="person-detection-0100"/>
			<move_to_preprocess value="False"/>
			<output value="['detection_out']"/>
			<output_dir value="DIR"/>
			<placeholder_data_types value="{}"/>
			<placeholder_shapes value="{'image': array([  1,   3, 256, 256])}"/>
			<progress value="False"/>
			<remove_memory value="False"/>
			<remove_output_softmax value="False"/>
			<reverse_input_channels value="True"/>
			<save_params_from_nd value="False"/>
			<scale_values value="image[255.0]"/>
			<silent value="False"/>
			<stream_output value="False"/>
			<unset unset_cli_parameters="batch, counts, disable_fusing, disable_gfusing, finegrain_fusing, input_checkpoint, input_meta_graph, input_proto, input_symbol, mean_file, mean_file_offsets, nd_prefix_name, pretrained_model_name, saved_model_dir, saved_model_tags, scale, tensorboard_logdir, tensorflow_custom_layer_libraries, tensorflow_custom_operations_config_update, tensorflow_object_detection_api_pipeline_config, tensorflow_use_custom_operations_config, transformations_config"/>
		</cli_parameters>
	</meta_data>
	<quantization_parameters>
		<config>{
		'compression': {
			'algorithms': [
				{
					'name': 'DefaultQuantization',
					'params': {
						'preset': 'performance',
						'stat_subset_size': 300
					}
				}
			],
			'target_device': 'CPU'
		},
		'engine': {
			'models': [
				{
					'name': 'person-detection-0100',
					'launchers': [
						{
							'framework': 'dlsdk',
							'tags': [
								'FP32'
							],
							'model': 'PATH',
							'weights': 'PATH',
							'adapter': 'ssd',
							'device': 'CPU'
						}
					],
					'datasets': [
						{
							'name': 'person_detection',
							'data_source': 'PATH',
							'annotation_conversion': {
								'converter': 'datatang_street_subway',
								'annotation_file': 'PATH'
							},
							'annotation': 'datatang_street_subway.pickle',
							'dataset_meta': 'datatang_street_subway.json',
							'preprocessing': [
								{
									'type': 'resize',
									'dst_width': 256,
									'dst_height': 256
								}
							],
							'postprocessing': [
								{
									'type': 'resize_prediction_boxes'
								},
								{
									'type': 'filter',
									'apply_to': 'annotation',
									'height_range': 100,
									'aspect_ratio': '0.666, 5',
									'is_empty': true,
									'min_visibility': 'partially occluded'
								},
								{
									'type': 'filter',
									'apply_to': 'prediction',
									'height_range': 100,
									'is_empty': true,
									'aspect_ratio': '0.666, 5'
								}
							],
							'metrics': [
								{
									'type': 'map',
									'ignore_difficult': true,
									'include_boundaries': true,
									'allow_multiple_matches_per_ignored': false,
									'distinct_conf': false
								}
							]
						}
					]
				},
				{
					'name': 'person-detection-0100',
					'launchers': [
						{
							'framework': 'dlsdk',
							'tags': [
								'FP16'
							],
							'model': 'PATH',
							'weights': 'PATH',
							'adapter': 'ssd',
							'device': 'CPU'
						}
					],
					'datasets': [
						{
							'name': 'person_detection',
							'data_source': 'PATH',
							'annotation_conversion': {
								'converter': 'datatang_street_subway',
								'annotation_file': 'PATH'
							},
							'annotation': 'datatang_street_subway.pickle',
							'dataset_meta': 'datatang_street_subway.json',
							'preprocessing': [
								{
									'type': 'resize',
									'dst_width': 256,
									'dst_height': 256
								}
							],
							'postprocessing': [
								{
									'type': 'resize_prediction_boxes'
								},
								{
									'type': 'filter',
									'apply_to': 'annotation',
									'height_range': 100,
									'aspect_ratio': '0.666, 5',
									'is_empty': true,
									'min_visibility': 'partially occluded'
								},
								{
									'type': 'filter',
									'apply_to': 'prediction',
									'height_range': 100,
									'is_empty': true,
									'aspect_ratio': '0.666, 5'
								}
							],
							'metrics': [
								{
									'type': 'map',
									'ignore_difficult': true,
									'include_boundaries': true,
									'allow_multiple_matches_per_ignored': false,
									'distinct_conf': false
								}
							]
						}
					]
				}
			],
			'global_definitions': '../dataset_definitions.yml',
			'stat_requests_number': null,
			'eval_requests_number': null,
			'type': 'accuracy_checker'
		}
	}</config>
		<version value="1.0"/>
		<cli_params value="{'evaluate': False, 'output_dir': 'PATH', 'direct_dump': True, 'log_level': 'INFO', 'pbar': False, 'keep_uncompressed_weights': False}"/>
	</quantization_parameters>
</net>
